hw5/models/pretrain.pth (torch, 329559 bytes, 36 tensors)

cnn.0.weight f4 [16, 3, 3, 3]
-0.0978463 0.12392139 0.07788768 0.039864898 -0.09576831 0.06124275 0.014116722 -0.034104567
-0.13943115 0.02056915 0.07695886 -0.041532416 0.17881705 0.15567371 0.20747432 -0.19338529
-0.22373784 -0.10696019 0.03799911 -0.10728432 0.19573666 0.040248103 0.28778243 0.15918161
-0.09366577 -0.2418004 -0.28023306 0.03618873 -0.14632177 -0.16552988 -0.007710505 -0.008934942
0.12105467 -0.011418147 0.14791036 0.034290638 -0.27027977 -0.24890937 -0.09540997 -0.04545676
-0.039930064 0.07707126 0.25238904 0.23427258 0.15939324 -0.27095073 -0.031421434 -0.075384505
-0.012780223 0.08787811 -0.17629635 0.21798044 -0.009173084 0.24888024 -0.026964355 0.2704106
-0.03876399 -0.18346727 0.053234436 0.20436853 -0.19424304 -0.040131524 -0.058016565 -0.08592808
0.27837208 0.18148552 -0.13326146 0.08313763 0.00025497878 -0.26607808 -0.08097971 0.08642202
0.013400466 0.12356788 0.03415694 -0.19506598 0.07658833 0.13347752 -0.291185 -0.11102784
0.15860713 -0.050243426 0.27680284 -0.04384052 0.044509534 0.055564597 -0.17357142 -0.05744799
0.14066468 -0.19820732 -0.34697887 0.24664463 0.11835468 -0.06941801 0.2767212 -0.12810199
0.2168783 0.044967264 0.010079188 -0.101734035 0.23050019 0.021988193 -0.16291216 0.2669061
-0.22993006 0.11423267 0.052460335 -0.121930026 0.042756893 -0.07426199 -0.097954646 0.20872006
0.265537 0.22818041 -0.1434562 -0.044548895 0.043757215 -0.3653771 -0.00786764 -0.4061196
-0.26230133 -0.13286729 0.11208643 -0.20257238 -0.07272425 -0.15373631 0.08124915 -0.102340706
0.0063662142 0.08560593 -0.0062564653 0.02572619 -0.25928876 0.12891032 -0.02129169 0.03003966
0.049019743 -0.11636545 0.17238414 -0.069345504 0.08291301 0.06913966 0.013443463 -0.23849264
0.23741135 0.12827593 -0.18129483 0.036857944 0.01007514 -0.14837971 0.17233947 -0.18588933
-0.060619414 0.05264787 0.11783223 -0.105358616 0.040639255 0.098014876 -0.06538119 0.21299045
-0.16847087 -0.21865338 0.094416864 0.019729335 0.097093 0.00801787 -0.09833024 -0.12162222
-0.1499665 0.16903682 -0.0028839393 0.273937 0.12943833 0.31909895 -0.23229043 -0.1933501
-0.12808233 -0.0332015 -0.03413888 -0.14081751 0.22642826 -0.07403711 0.232823 -0.07645095
0.057125956 -0.18898074 -0.19297957 0.09445372 -0.06288067 0.014430808 -0.08936266 0.052342534
0.22579661 -0.21745495 0.0255524 0.2871474 -0.31429312 0.0469016 -0.036984257 -0.20665585
0.20319915 0.053977177 -0.1733357 0.075986385 0.05461174 -0.27715442 0.14383963 -0.008443485
-0.20239125 0.08825767 0.09724405 -0.11561531 0.1911269 0.13109115 -0.31711522 0.04593286
0.16277999 -0.11037418 -0.14156085 0.14267786 0.055204675 -0.05473689 0.01837479 -0.0092544295
-0.047449216 0.24507205 -0.09745315 -0.21755162 0.088603415 -0.061692394 -0.13319625 0.24101017
0.19081193 -0.26905572 0.057582963 0.036507882 -0.15898797 0.24227284 -0.050605357 -0.15830663
0.17445403 -0.04199951 -0.12803206 0.1290146 -0.009098582 -0.3167312 0.03403317 0.05107379
-0.0894376 -0.062276836 0.08937976 0.1409918 0.061271705 -0.20419489 -0.299213 0.06493646
00000000: a463 c8bd 7fca fd3d 9383 9f3d 6049 233d
00000010: 2d22 c4bd aed9 7a3d d349 673c 3bb1 0bbd
00000020: 0ac7 0ebe a280 a83c 9b9c 9d3d e51d 2abd
00000030: d11b 373e ee68 1f3e 2674 543e cb06 46be
00000040: 881b 65be f20d dbbd f4a4 1b3d e2b7 dbbd
00000050: 316f 483e 32db 243d 3858 933e 8100 233e
00000060: d7d3 bfbd 869a 77be b57a 8fbe a23a 143d
00000070: 60d5 15be aa80 29be 67a8 fcbb dd63 12bc
00000080: 83eb f73d 2e13 3bbc d075 173e 5774 0c3d
00000090: 1c62 8abe 19e2 7ebe 4d66 c3bd de30 3abd
000000a0: b58d 23bd 89d7 9d3d 2339 813e 27e5 6f3e
000000b0: fb37 233e 0eba 8abe c3b3 00bd 3163 9abd
000000c0: 2464 51bc 70f9 b33d 0887 34be 4436 5f3e
000000d0: b44a 16bc 76da 7e3e 5ae4 dcbc 4273 8a3e
000000e0: fdc6 1ebd d8de 3bbe 5a0c 5a3d fc45 513e
000000f0: a6e7 46be f460 24bd c7a2 6dbd 10fb afbd
00000100: c986 8e3e 57d7 393e b175 08be 1044 aa3d
00000110: acae 8539 633b 88be b1d8 a5bd 07fe b03d
00000120: a18d 5b3c 2811 fd3d 26e8 0b3d 60bf 47be
00000130: 58da 9c3d 55ae 083e 3316 95be 9062 e3bd
00000140: e869 223e 0dcc 4dbd 1ab9 8d3e 1e92 33bd
00000150: a14f 363d b497 633d b5bc 31be 954e 6bbd
00000160: 670a 103e dcf6 4abe 37a7 b1be 6990 7c3e
00000170: f063 f23d 082b 8ebd 67ae 8d3e 2b2d 03be
00000180: 5815 5e3e 982f 383d 2e23 253c ef59 d0bd
00000190: 3e08 6c3e 9520 b43c 72d2 26be eba7 883e
000001a0: c972 6bbe d1f2 e93d a6e0 563d 73b6 f9bd
000001b0: da21 2f3d ac16 98bd 729c c8bd b6ba 553e
000001c0: 77f4 873e 20a8 693e 2fe6 12be e778 36bd
000001d0: c43a 333d b512 bbbe 46e7 00bc e9ee cfbe
000001e0: 5c4c 86be 5d0e 08be 928d e53d 226f 4fbe
000001f0: 74f0 94bd 0d6d 1dbe f465 a63d 0198 d1bd
00000200: ad9b d03b 2952 af3d 0903 cdbb bbbf d23c
00000210: 7fc1 84be 1101 043e e96b aebc bc15 f63c
00000220: edc8 483d 0251 eebd 7885 303e 0405 8ebd
00000230: 4cce a93d 1899 8d3d f841 5c3c 6a37 74be
00000240: f61b 733e c45a 033e 5aa5 39be 5bf8 163d
00000250: 3312 253c daf0 17be c279 303e c659 3ebe
00000260: 104c 78bd 4ba5 573d 0652 f13d 42c6 d7bd
00000270: 5975 263d 06bc c83d 93e6 85bd 2b1a 5a3e
00000280: a183 2cbe ace6 5fbe a15d c13d 6a9f a13c
00000290: b2d8 c63d 625d 033c 5d61 c9bd 1215 f9bd
000002a0: d190 19be fd17 2d3e 7900 3dbb 7841 8c3e
000002b0: 7b8b 043e f060 a33e 8bdd 6dbe 92fd 45be
000002c0: 0428 03be 4cfe 07bd 36d5 0bbd 7732 10be
000002d0: cfdc 673e c5a0 97bd 2769 6e3e 5192 9cbd
000002e0: e8fc 693d 2b84 41be 709c 45be f470 c13d
000002f0: 95c7 80bd 326f 6c3c c503 b7bd 2065 563d
00000300: 3a37 673e 83ac 5ebe 4453 d13c fc04 933e
00000310: 07eb a0be e41b 403d ce7c 17bd 979d 53be
00000320: 7013 503e 2c17 5d3d ea7e 31be c09e 9b3d
00000330: 8fb0 5f3d 2fe7 8dbe b24a 133e 8b56 0abc
00000340: a73f 4fbe 70c0 b43d e327 c73d b8c7 ecbd
00000350: c5b6 433e c23c 063e ed5c a2be 1824 3c3d
00000360: ccaf 263e dc0b e2bd 54f5 10be 251a 123e
00000370: 4c1e 623d ca33 60bd ba86 963c e49f 17bc
00000380: 1c5a 42bd 2bf4 7a3e 8495 c7bd dac5 5ebe
00000390: b575 b53d 2ab1 7cbd 9964 08be 5fcb 763e
000003a0: 3464 433e acc1 89be 1ddc 6b3d 4a89 153d
000003b0: becd 22be 5f16 783e 9047 4fbd 221b 22be
000003c0: 14a4 323e ae07 2cbd d61a 03be 671c 043e
000003d0: 3812 15bc 982a a2be 5e66 0b3d c032 513d
000003e0: 0f2b b7bd ff15 7fbd bc0c b73d 2860 103e
000003f0: 0af8 7a3d 7718 51be 7232 99be 68fd 843d

cnn.0.bias f4 [16]
0.13781461 0.052439325 -0.17459142 -0.18993264 0.026768241 -0.18289737 -0.017662715 -0.040053
-0.17274062 -0.1425192 -0.3046521 -0.05250913 0.14220013 -0.18719292 0.1667659 -0.041473683
00000000: 461f 0d3e 9eca 563d 18c8 32be b47d 42be
00000010: 1249 db3c 7349 3bbe 66b1 90bc 9d0e 24bd
00000020: ebe2 30be 8ef0 11be 5cfb 9bbe d013 57bd
00000030: e99c 113e 80af 3fbe aec4 2a3e 4fe0 29bd

cnn.1.weight f4 [16]
0.8500988 1.2696484 0.9069249 0.6006157 0.7342636 0.943169 1.0151504 0.64363295
1.1817322 0.916324 0.8801576 1.1616402 0.797804 1.0557276 0.8383401 1.038926
00000000: 13a0 593f d783 a23f 3b2c 683f f3c1 193f
00000010: b3f8 3b3f 8673 713f 73f0 813f 21c5 243f
00000020: 0043 973f 3694 6a3f 0252 613f a0b0 943f
00000030: e23c 4c3f 1522 873f 759d 563f 87fb 843f

cnn.1.bias f4 [16]
-0.026734732 -0.101977125 -0.069385864 0.5503929 -0.15381281 -0.0135733625 0.010906414 0.41879007
-0.02516562 0.18227765 0.45590574 -0.09691294 0.43319035 0.03091512 0.34234485 -0.021055274
00000000: cc02 dbbc 62d9 d0bd 2d1a 8ebd 8de6 0c3f
00000010: 1b81 1dbe cf62 5ebc d1b0 323c a76b d63e
00000020: 2128 cebc fea6 3a3e 7a6c e93e 4b7a c6bd
00000030: 20cb dd3e b541 fd3c d347 af3e 1c7c acbc

cnn.1.running_mean f4 [16]
0.14506832 0.035356272 -0.16929129 -0.20401683 0.052872308 -0.17941746 -0.0017723998 -0.03317889
-0.17190085 -0.15866955 -0.2974218 -0.06794592 0.15213324 -0.19067103 0.15148263 -0.026848255
00000000: ca8c 143e bdd1 103d b25a 2dbe cae9 50be
00000010: a290 583d 36b9 37be de4f e8ba 96e6 07bd
00000020: c706 30be 457a 22be ac47 98be 3b27 8bbd
00000030: d1c8 1b3e 443f 43be 431e 1b3e dff0 dbbc

cnn.1.running_var f4 [16]
0.06455072 0.15760407 0.12940258 0.07106957 0.2867895 0.07224644 0.09927077 0.04388569
0.11117015 0.1267981 0.0695885 0.12362114 0.041072104 0.1104245 0.060923934 0.14883578
00000000: 2b33 843d f662 213e 1c82 043e ec8c 913d
00000010: 13d6 923e f1f5 933d 794e cb3d 7bc1 333d
00000020: 2dad e33d 5cd7 013e 6a84 8e3d 152d fd3d
00000030: 393b 283d 3e26 e23d 608b 793d 6868 183e

cnn.4.weight f4 [32, 16, 3, 3]
-0.0036021334 0.04642933 -0.02161556 0.051772777 0.124561034 0.047270324 0.0059917355 -0.014945765
0.10353732 0.06845868 0.08578562 0.081468865 -0.008899733 -0.056779664 0.108120024 -0.0029267084
-0.009532253 0.034203887 0.010470683 0.09386549 -0.0044906256 -0.023412686 0.08641978 0.13997123
-0.0024525898 0.0026104585 0.14133109 -0.02552926 0.012558347 -0.015608813 -0.0312866 0.04341164
0.05774687 -0.20149054 -0.14244746 0.0639239 0.039435413 -0.010154946 -0.047327757 0.07693871
0.0013125683 -0.16516225 -0.017789438 -0.005102446 -0.033594638 -0.269523 -0.19571535 -0.03476783
-0.20951529 -0.30920598 -0.18449137 -0.23476957 -0.25728136 -0.17729065 0.1324724 0.075268
0.00940234 0.09086961 0.028874975 -0.095907725 -0.07147337 0.050761368 0.04913963 0.05329205
-0.07121783 0.015014766 0.029985469 -0.013673484 -0.076348506 0.011207375 -0.051165424 0.024324162
-0.3064034 -0.185659 -0.1731757 -0.33105654 -0.29379743 -0.25632325 -0.27788988 -0.44672048
-0.33589283 0.0699344 0.038755007 0.062366243 -0.008073471 0.02462311 0.11404088 -0.026632184
-0.09550341 -0.0812957 -0.044486143 0.07457606 0.030801887 0.05048495 -0.04586677 0.0030702788
-0.17288743 -0.18724628 -0.29968226 0.14700627 -0.07517842 -0.07423747 0.13373142 0.114774846
0.027857196 -0.013387779 0.09184775 0.072065145 0.0235733 0.030644313 -0.033398725 0.009698462
0.12517376 0.035070222 0.0060791257 0.01873327 -0.019801343 0.030759802 -0.008378101 -0.085376985
-0.024028674 0.06268321 0.07266624 -0.121326566 0.021025324 0.13047668 -0.059602182 -0.07305456
0.061037995 0.08943912 0.002973947 0.062142987 -0.12567103 -0.026202336 0.025123907 -0.014349604
-0.0872346 0.046380933 -0.041155767 -0.12746716 -0.09108831 -0.10760183 -0.1755113 -0.0009606168
-0.060529776 -0.32667094 -0.3133863 0.06660025 -0.089257695 -0.16362673 0.06658646 0.057882756
0.12130402 -0.054109026 -0.11855684 -0.13733488 0.037729785 -0.15717463 -0.08134548 0.15379709
-0.07507367 0.1402444 -0.02653638 0.007118978 0.09089288 0.12183132 0.07947368 0.20539129
0.042959835 0.15146416 0.07726167 0.05041968 0.21093315 -0.067765504 -0.082344234 0.060978368
-0.08185698 -0.10847426 -0.030707937 -0.07910408 -0.07686003 -0.060580548 0.057918567 0.025535619
-0.062499598 0.0842043 0.011450541 -0.057973556 -0.011646917 0.016604962 0.096711755 -0.030171545
0.0761997 -0.012989048 0.055908095 -0.0751858 -0.13190831 0.037079588 0.04225449 -0.2802936
-0.23505689 -0.16218145 -0.19006565 -0.43554935 -0.018229948 0.15505873 0.049869 0.024070721
0.002466035 0.18174526 -0.058317605 0.09237789 0.11242389 -0.06965822 -0.046894696 -0.027977368
0.00931017 0.15689932 0.14075372 -0.011704939 0.07926153 0.13624062 -0.078379884 -0.06528358
0.028695269 -0.058158834 0.04092363 -0.023388438 0.14898959 0.07814492 -0.09701228 0.14924897
0.12837131 0.008392578 -0.001793308 -0.06699879 -0.055790972 0.18001096 0.0338045 0.02219975
0.17695475 0.08234871 -0.026211824 0.06310755 0.15290134 0.020629708 -0.14009573 0.05909002
-0.06295963 -0.15892252 -0.09014042 -0.113746114 0.0903712 -0.02965875 -0.22923395 -0.009024487
00000000: c511 6cbb ae2c 3e3d 1d13 b1bc b10f 543d
00000010: db19 ff3d 879e 413d 5256 c43b 15df 74bc
00000020: 600b d43d 1034 8c3d 5fb0 af3d 26d9 a63d
00000030: 30d0 11bc cb91 68bd 086e dd3d 05ce 3fbb
00000040: 2b2d 1cbc 6019 0c3d 3a8d 2b3c 8d3c c03d
00000050: 1926 93bb f6cb bfbc dbfc b03d 9e54 0f3e
00000060: a1bb 20bb 3a14 2b3b 19b9 103e bd22 d1bc
00000070: 86c1 4d3c 1bbc 7fbc 6126 00bd 67d0 313d
00000080: fb87 6c3d 8953 4ebe bfdd 11be 89ea 823d
00000090: 0787 213d ee60 26bc c0da 41bd 0b92 9d3d
000000a0: 7c0a ac3a 4b20 29be 28bb 91bc 6b32 a7bb
000000b0: 889a 09bd ebfe 89be 9b69 48be b668 0ebd
000000c0: 2d8b 56be 3f50 9ebe 4eeb 3cbe 6f67 70be
000000d0: 62ba 83be ae8b 35be d8a6 073e 1c26 9a3d
000000e0: 460c 1a3c d919 ba3d 368b ec3c 456b c4bd
000000f0: a160 92bd 27eb 4f3d a346 493d c448 5a3d
00000100: a7da 91bd 7e00 763c 16a4 f53c c006 60bc
00000110: 9b5c 9cbd 239f 373c d692 51bd 7743 c73c
00000120: e8e0 9cbe 651d 3ebe f854 31be 3e80 a9be
00000130: 9e6c 96be cd3c 83be 9547 8ebe 8cb8 e4be
00000140: 25fa abbe c439 8f3d 92bd 1e3d bf73 7f3d
00000150: 9746 04bc 68b6 c93c 448e e93d bd2b dabc
00000160: 4b97 c3bd 5c7e a6bd 1a37 36bd 55bb 983d
00000170: 3d54 fc3c 4fc9 4e3d cbde 3bbd bb36 493b
00000180: 6709 31be 7dbd 3fbe f46f 99be d088 163e
00000190: 25f7 99bd d109 98bd e4f0 083e 130f eb3d
000001a0: c634 e43c 6a58 5bbc ac1a bc3d e496 933d
000001b0: cb1c c13c c809 fb3c 1acd 08bd 4ce6 1e3c
000001c0: 8d2d 003e cba5 0f3d 6733 c73b 8476 993c
000001d0: 6d36 a2bc fbfb fb3c 4d44 09bc 21da aebd
000001e0: c8d7 c4bc 0e60 803d 0ad2 943d 107a f8bd
000001f0: 4d3d ac3c ae9b 053e 6b21 74bd a19d 95bd
00000200: fa02 7a3d db2b b73d 8de6 423b a589 7e3d
00000210: e8af 00be 48a6 d6bc a7d0 cd3c 9a1a 6bbc
00000220: 0ea8 b2bd eff9 3d3d f392 28bd c086 02be
00000230: 828c babd 595e dcbd 3cb9 33be e7d1 7bba
00000240: 12ee 77bd 6a41 a7be 2b74 a0be b665 883d
00000250: bdcc b6bd c48d 27be 7b5e 883d 7816 6d3d
00000260: 3e6e f83d 6da1 5dbd eecd f2bd 84a1 0cbe
00000270: 8c8a 1a3d 63f2 20be 7698 a6bd fc7c 1d3e
00000280: 39c0 99bd 3a9c 0f3e d362 d9bc 5146 e93b
00000290: 0c26 ba3d b382 f93d 19c3 a23d 1852 523e
000002a0: a7f6 2f3d 6c19 1b3e 5e3b 9e3d de84 4e3d
000002b0: dcfe 573e a4c8 8abd 18a4 a8bd 74c4 793d
000002c0: a2a4 a7bd c127 debd 368f fbbc 5201 a2bd
000002d0: cb68 9dbd 4f23 78bd 053c 6d3d 1330 d13c
000002e0: 94ff 7fbd 4e73 ac3d 0d9b 3b3c ae75 6dbd
000002f0: b6d2 3ebc 2107 883c d010 c63d 512a f7bc
00000300: 970e 9c3d 04d0 54bc e3ff 643d 03fb 99bd
00000310: f912 07be c4e0 173d 0b13 2d3d a582 8fbe
00000320: c1b2 70be e512 26be 92a0 42be 5300 dfbe
00000330: f956 95bc b7c7 1e3e 7043 4c3d f62f c53c
00000340: 349d 213b 6e1b 3a3e 71de 6ebd 9f30 bd3d
00000350: 7f3e e63d f8a8 8ebd a714 40bd cb30 e5bc
00000360: af89 183c 37aa 203e be21 103e 13c6 3fbc
00000370: de53 a23d a982 0b3e a285 a0bd 66b3 85bd
00000380: 5712 eb3c f537 6ebd 899f 273d 1c99 bfbc
00000390: ba90 183e 720a a03d 60ae c6bd b9d4 183e
000003a0: c573 033e 0681 093c 6e0d ebba a936 89bd
000003b0: 1385 64bd cb54 383e 9676 0a3d 40dc b53c
000003c0: a033 353e 71a6 a83d 2eba d6bc 883e 813d
000003d0: 2b92 1c3e a2ff a83c 4175 0fbe 6008 723d
000003e0: faf0 80bd 96bc 22be 8a9b b8bd b9f3 e8bd
000003f0: 8914 b93d e8f6 f2bc 4ebc 6abe 71db 13bc

cnn.4.bias f4 [32]
-0.10589961 0.017772386 -0.107480355 0.034190558 -0.11295355 0.019905034 -0.06568347 0.11518062
-0.031749398 0.047003437 -0.08439942 0.031792387 -0.095326744 -0.008754467 0.0023200328 -0.053067714
-0.050911326 -0.012370642 -0.040454935 -0.07225934 0.054953266 0.038666673 -0.010760961 -0.017848104
-0.035099648 0.0033345576 0.08116387 -0.029320756 0.010855883 -0.031915434 -0.11479516 0.046684846
00000000: e5e1 d8bd 6597 913c a91e dcbd 660b 0c3d
00000010: 3154 e7bd e20f a33c 0e85 86bd d1e3 eb3d
00000020: a80b 02bd ad86 403d 9ad9 acbd bc38 023d
00000030: ab3a c3bd e56e 0fbc b10b 183b 885d 59bd
00000040: 6588 50bd 3cae 4abc 13b4 25bd b4fc 93bd
00000050: ad16 613d f260 1e3d be4e 30bc 3036 92bc
00000060: a6c4 0fbd 9888 5a3b 3e39 a63d 1532 f0bc
00000070: e0dc 313c c2b9 02bd ba19 ebbd 9c38 3f3d

cnn.5.weight f4 [32]
1.0717429 0.9242298 1.0587846 1.0855473 1.0903088 0.86280674 0.9514884 1.1051625
0.81809086 1.0553246 1.0289034 0.9917813 0.93555206 0.99487203 0.8383866 0.98347527
1.031621 0.9883646 0.87591445 0.8177494 0.84678173 1.0297254 1.0230305 1.039466
0.9970193 1.1245396 1.098468 0.88072115 1.110074 1.0058895 1.0802921 0.8208454
00000000: df2e 893f 539a 6c3f 4186 873f 37f3 8a3f
00000010: 3d8f 8b3f e7e0 5c3f be94 733f f775 8d3f
00000020: 676e 513f e014 873f 1bb3 833f 61e5 7d3f
00000030: 5780 6f3f efaf 7e3f 81a0 563f 09c5 7b3f
00000040: 280c 843f 7605 7d3f ee3b 603f 0658 513f
00000050: b0c6 583f 0bce 833f aaf2 823f 390d 853f
00000060: a83c 7f3f eaf0 8f3f 999a 8c3f f176 613f
00000070: e816 8e3f fdc0 803f 0347 8a3f ed22 523f

cnn.5.bias f4 [32]
-0.3736507 -0.25317988 -0.40633073 -0.2700426 -0.2024516 -0.23997054 -0.23961289 -0.28200516
-0.17893963 -0.10334976 -0.15652221 -0.29505906 -0.2927878 -0.4015763 -0.16742875 -0.30024293
-0.21902186 -0.32094052 -0.24276859 -0.196603 -0.25034115 -0.11721969 -0.18720597 -0.33014154
-0.34808818 -0.20505461 -0.21962622 -0.12885492 -0.4559517 -0.1835223 -0.14667131 0.13491738
00000000: 254f bfbe cba0 81be 950a d0be 0643 8abe
00000010: 794f 4fbe d6ba 75be 155d 75be fb62 90be
00000020: f33b 37be 0aa9 d3bd 5c47 20be fb11 97be
00000030: 48e8 95be 699b cdbe 7172 2bbe 71b9 99be
00000040: 4447 60be 5152 a4be 5498 78be 4c52 49be
00000050: b72c 80be e010 f0bd ecb2 3fbe 5008 a9be
00000060: 9d38 b2be d6f9 51be b2e5 60be 8bf2 03be
00000070: 8072 e9be 45ed 3bbe 0131 16be c827 0a3e

cnn.5.running_mean f4 [32]
-2.5556974 -1.1126074 -1.2941947 -0.7839855 -1.1595882 -0.45037404 -1.4273183 -0.6877561
-0.22185706 -0.6053308 -0.91013455 -0.8177895 -0.5958337 -0.8784763 0.13211301 -0.76803523
-1.6852021 -1.9174669 -0.804783 -0.36859006 -1.4304783 -0.57184196 -0.6911124 -2.4098496
-0.40702933 -0.335105 -0.14834104 -0.6490798 -1.0665169 -0.49579886 -1.0632999 0.6565099
00000000: 8c90 23c0 eb69 8ebf 2ca8 a5bf 46b3 48bf
00000010: 636d 94bf 6d97 e6be 5eb2 b6bf c910 30bf
00000020: 7f2e 63be f6f6 1abf 94fe 68bf a75a 51bf
00000030: 8f88 18bf d3e3 60bf a248 073e f59d 44bf
00000040: b4b4 d7bf 8e6f f5bf 4206 4ebf d6b7 bcbe
00000050: ea19 b7bf 3c64 12bf beec 30bf fa3a 1ac0
00000060: 2666 d0be e292 abbe b7e6 17be 182a 26bf
00000070: a083 88bf 59d9 fdbe 361a 88bf 0811 283f

cnn.5.running_var f4 [32]
7.024219 3.3524048 4.544733 4.0216556 3.762141 4.5115976 2.30079 1.2708815
1.8629477 1.8207482 2.4752107 2.3678422 1.8180968 2.7735415 4.8976765 3.671615
4.040588 5.8412127 3.3685486 2.879467 6.6884775 2.0817642 1.1740172 6.0158896
4.3320704 1.788411 2.270227 2.468912 3.239331 4.283841 2.5507274 0.8466694
00000000: 67c6 e040 cd8d 5640 746e 9140 67b1 8040
00000010: ebc6 7040 025f 9040 2540 1340 3fac a23f
00000020: 1275 ee3f 470e e93f da69 1e40 ba8a 1740
00000030: 65b7 e83f b481 3140 c4b9 9c40 bdfb 6a40
00000040: 7f4c 8140 37eb ba40 4d96 5740 3049 3840
00000050: 0208 d640 a03b 0540 3246 963f 2b82 c040
00000060: 52a0 8a40 a7ea e43f 664b 1140 a702 1e40
00000070: 3351 4f40 3a15 8940 1e3f 2340 53bf 583f

cnn.8.weight f4 [48, 32, 3, 3]
-0.09546755 0.11230384 0.13104491 -0.15094687 0.056627978 -0.013737697 0.032210927 0.100216456
-0.02211057 -0.15087701 -0.1504977 -0.09298316 -0.15902346 -0.008776798 0.17985357 -0.26944402
0.054545335 0.21056192 0.19517945 0.12795754 0.20902723 0.046952605 -0.106910035 0.1273247
-0.068371676 -0.104013965 0.11584114 0.02071887 -0.022604391 -0.0689496 -0.047931455 -0.09103788
0.048075616 0.106064186 0.09199552 0.031013517 0.093491554 -0.02134614 0.13294342 -0.12224127
-0.022222636 0.10394216 -0.037806246 0.15545344 0.24890989 -0.1173769 -0.03575119 0.11685611
0.10707061 0.053497255 0.0013804742 0.13482866 -0.27198932 -0.08416359 0.094685785 0.10747432
0.060862377 0.032641865 0.08250566 -0.053804204 -0.0016227993 -0.006400527 -0.1797417 -0.03536497
0.021804264 -0.06059113 -0.12281919 -0.240201 -0.1439979 -0.045406237 -0.13702373 -0.075632244
0.059048276 0.032992203 -0.0979405 0.10780117 -0.004964423 -0.14233145 -0.027174272 -0.13007078
-0.28908917 0.06050716 0.11853039 -0.15421341 -0.10654656 -0.0026929253 -0.281872 0.0868464
-0.01110394 -0.106540196 0.04241429 -0.03923635 0.04300393 -0.05193744 -0.061331775 -0.065929554
-0.15950538 -0.14921452 -0.06486982 0.05593801 -0.10638648 -0.08757921 -0.052308947 0.06725012
0.29139146 -0.1447027 -0.09558824 0.05420236 0.028771268 -0.12773697 -0.14371139 0.10787812
-0.007033226 0.0142117785 -0.08019879 -0.2103093 0.09171616 -0.05802364 -0.07252331 -0.18335499
-0.10148184 -0.097498134 -0.18854667 -0.056840386 -0.031865437 -0.09550102 -0.036439795 0.04101415
-0.058773596 -0.10624497 -0.0449299 -0.044239353 0.060132265 0.067811206 0.026090099 0.0855696
0.08719871 0.10224903 0.027279755 0.06461606 -0.10490573 -0.018672135 0.019566694 -0.049950905
-0.08454357 -0.16315098 -0.14871813 0.094868876 -0.08585264 -0.24193735 0.021683803 0.055371594
0.24598525 -0.13171898 0.09583083 -0.06023122 -0.11405978 -0.0063030077 0.1008407 -0.010305933
0.16122025 0.047115296 0.12274268 -0.024069896 0.049955975 -0.022660337 -0.17196372 -0.047891308
-0.07393177 -0.019286716 0.041829955 -0.01626737 0.019849123 -0.078438506 -0.123892024 0.13684076
-0.10342513 -0.016984902 0.08799367 -0.012065011 -0.067066014 0.07528148 0.09578914 -0.06257731
-0.07534063 -0.12191194 0.004584471 -0.02563953 -0.011963236 0.040301375 0.08546758 -0.053587515
-0.057138704 -0.16318128 -0.036197167 -0.15966159 -0.03414786 0.12905765 -0.21083839 -0.2027301
-0.22201155 0.069899 0.026513973 -0.20486577 -0.08459267 -0.030079532 -0.18936251 0.038375236
0.07183704 -0.044739053 0.058909964 0.038778786 -0.06718743 0.046190843 -0.16095898 0.0032877647
-0.033685777 0.13549975 0.060242727 -0.19171116 -0.12484639 0.05196398 -0.302966 -0.07094036
0.014849327 -0.036351517 -0.081361175 -0.04760523 -0.07574331 0.030199608 0.06384522 -0.21749888
-0.03759706 -0.060096357 0.021367492 -0.14302759 0.05719234 -0.062518574 -0.06872038 -0.14844221
-0.26198295 -0.2076778 -0.13349134 -0.12658569 0.00033623097 -0.15324529 0.0028917484 0.13020433
-0.084546074 -0.044011388 0.03848009 -0.09433965 0.038050696 -0.12798597 -0.13245717 0.113944076
00000000: 7e84 c3bd 8eff e53d a330 063e d191 1abe
00000010: bdf2 673d 1414 61bc 9bef 033d 493e cd3d
00000020: 3a21 b5bc 817f 1abe 121c 1abe f46d bebd
00000030: 0cd7 22be 8fcc 0fbc 892b 383e 91f4 89be
00000040: ee6a 5f3d 8b9d 573e 1fdd 473e 4d07 033e
00000050: 3c0b 563e 6051 403d a6f3 dabd 6861 023e
00000060: 7306 8cbd 4605 d5bd 1f3e ed3d 9fba a93c
00000070: d82c b9bc 7335 8dbd c653 44bd 1172 babd
00000080: f0ea 443d 2e38 d93d 2668 bc3d 0f10 fe3c
00000090: 8078 bf3d 1ade aebc 5222 083e a259 fabd
000000a0: 3f0c b6bc a1df d43d b9da 1abd 302f 1f3e
000000b0: 3ce2 7e3e 4d63 f0bd d76f 12bd 4252 ef3d
000000c0: d647 db3d f01f 5b3d 07f1 b43a 8610 0a3e
000000d0: 2f42 8bbe f65d acbd 9fea c13d 7f1b dc3d
000000e0: d44a 793d 7ab3 053d baf8 a83d cc61 5cbd
000000f0: 1cb4 d4ba 83bb d1bb 350e 38be dcda 10bd
00000100: db9e b23c 682e 78bd a188 fbbd 40f7 75be
00000110: 2f74 13be e4fb 39bd f34f 0cbe 14e5 9abd
00000120: 9bdc 713d d522 073d 0795 c8bd dcc6 dc3d
00000130: 99ac a2bb 56bf 11be 949c debc 4631 05be
00000140: 7f03 94be 5bd6 773d 10c0 f23d 1fea 1dbe
00000150: 1535 dabd ca7b 30bb 8751 90be 86dc b13d
00000160: 4ded 35bc bf31 dabd 9bba 2d3d 4cb6 20bd
00000170: e424 303d 5abc 54bd 0737 7bbd 1306 87bd
00000180: 6155 23be b1cb 18be 78da 84bd 411f 653d
00000190: 28e1 d9bd bb5c b3bd e841 56bd 6eba 893d
000001a0: 4331 953e f22c 14be c4c3 c3bd 4b03 5e3d
000001b0: b9b1 eb3c 7bcd 02be 1429 13be 34ef dc3d
000001c0: fa76 e6bb 85d8 683c 433f a4bd 525b 57be
000001d0: afd5 bb3d 32aa 6dbd 1a87 94bd 69c1 3bbe
000001e0: b6d5 cfbd 1aad c7bd 6112 41be 77d1 68bd
000001f0: 5585 02bd 0a96 c3bd e541 15bd 74fe 273d
00000200: 95bc 70bd f696 d9bd 6a08 38bd 5334 35bd
00000210: 404d 763d 9ae0 8a3d e7ba d53c 1d3f af3d
00000220: 3d95 b23d f067 d13d cb79 df3c 6d55 843d
00000230: d1d8 d6bd 4ef6 98bc 554a a03c 5299 4cbd
00000240: 2e25 adbd 0d11 27be 9149 18be 9d4a c23d
00000250: 82d3 afbd 6dbe 77be 3ba2 b13c 53cd 623d
00000260: 8fe3 7b3e 57e1 06be f442 c43d 03b5 76bd
00000270: 2d98 e9bd 7689 cebb 9285 ce3d 37da 28bc
00000280: ec16 253e f8fb 403d 8460 fb3d 3b2e c5bc
00000290: a39e 4c3d 2ca2 b9bc 4217 30be ad29 44bd
000002a0: 8a69 97bd 2dff 9dbc e355 2b3d 2643 85bc
000002b0: a19a a23c 5ea4 a0bd 1abb fdbd fc1f 0c3e
000002c0: 8ed0 d3bd ec23 8bbc 0636 b43d 53ac 45bc
000002d0: e859 89bd 2d2d 9a3d 192d c43d 8828 80bd
000002e0: 304c 9abd f8ac f9bd 5539 963b fe09 d2bc
000002f0: 7301 44bc 0e13 253d a009 af3d 957e 5bbd
00000300: 460a 6abd fe18 27be 7b43 14bd 547e 23be
00000310: a0de 0bbd b027 043e 05e6 57be 7b98 4fbe
00000320: ff56 63be 3527 8f3d d533 d93c 55c8 51be
00000330: ec3e adbd 5a69 f6bc 3fe8 41be 5a2f 1d3d
00000340: 4c1f 933d 4c40 37bd 934b 713d 81d6 1e3d
00000350: 9099 89bd 9c32 3d3d 6ed2 24be 8a77 573b
00000360: 19fa 09bd 72c0 0a3e 14c1 763d ee4f 44be
00000370: 77af ffbd 2fd8 543d 5c1e 9bbe 2e49 91bd
00000380: 974a 733c 54e5 14bd b0a0 a6bd b4fd 42bd
00000390: 4f1f 9bbd 2b65 f73c 48c1 823d 07b8 5ebe
000003a0: 60ff 19bd 9927 76bd e10a af3c d375 12be
000003b0: 8442 6a3d bd09 80bd 45bd 8cbd 3c01 18be
000003c0: a122 86be 7da9 54be f4b1 08be ae9f 01be
000003d0: 2848 b039 55ec 1cbe 7d83 3d3b 4954 053e
000003e0: 7e26 adbd 4945 34bd 4d9d 1d3d 2535 c1bd
000003f0: 0cdb 1b3d c10e 03be daa2 07be 835b e93d

cnn.8.bias f4 [48]
0.009391263 0.042104412 -0.11792238 -0.046339016 -0.0031331945 0.02229192 -0.01485036 -0.06243151
0.047541153 -0.013549954 0.070466645 0.052077647 -0.045331273 -0.02099696 0.020435564 0.06386422
0.06842305 -0.024233673 0.07788608 0.03926947 0.046235025 -0.012099694 0.06919565 0.026369346
-0.03576095 -0.043430902 0.023665868 0.016814405 -0.047959235 0.003984136 -0.028248208 -0.016565796
-0.055595223 0.0067971186 -0.03683072 0.016091852 0.039066922 0.0043510343 -0.0673093 0.0368337
0.019726211 0.006393522 0.034281433 -0.0013205709 0.045681242 -0.058020923 -0.05384744 0.015523993
00000000: d0dd 193c ad75 2c3d 4a81 f1bd fbcd 3dbd
00000010: 4856 4dbb 8b9d b63c ed4e 73bc 2fb8 7fbd
00000020: 83ba 423d a000 5ebc d150 903d 5f4f 553d
00000030: 49ad 39bd d101 acbc 7c68 a73c 3fcb 823d
00000040: 6221 8c3d b285 c6bc bd82 9f3d 06d9 203d
00000050: f060 3d3d cc3d 46bc 73b6 8d3d 8704 d83c
00000060: 137a 12bd 9ae4 31bd ecde c13c 5dbe 893c
00000070: e770 44bd 5b8d 823b c968 e7bc feb4 87bc
00000080: d1b7 63bd 5dba de3b cfdb 16bd 0fd3 833c
00000090: a304 203d 1f93 8e3b 75d9 89bd efde 163d
000000a0: dd98 a13c c080 d13b b06a 0c3d 0217 adba
000000b0: 411c 3b3d 59a7 6dbd 228f 5cbd 5958 7e3c

cnn.9.weight f4 [48]
0.8932838 0.87526 0.9260441 0.8469515 1.0166509 0.9113811 0.93022704 0.82933575
0.872452 0.8499431 0.826923 0.83775276 0.9653514 0.85204035 0.84496194 0.92672145
0.8714237 0.83005244 0.8855359 0.7796272 0.91744035 0.9270978 0.85323536 1.03961
0.8338168 0.9109148 1.0278587 0.93783545 1.0640244 0.9280668 0.85645705 0.957037
0.8660501 0.8693003 0.91371435 0.87858737 1.0348328 0.8432161 0.82929784 0.8086793
0.96286565 1.0271468 0.9087345 0.9808764 0.9491217 0.8547431 0.9407356 0.9697043
00000000: 3fae 643f 0a11 603f 3a11 6d3f d0d1 583f
00000010: 9e21 823f 4650 693f 5c23 6e3f 594f 543f
00000020: 0459 5f3f df95 593f 3ab1 533f f776 563f
00000030: 4521 773f 511f 5a3f 6d4f 583f 9e3d 6d3f
00000040: a015 5f3f 517e 543f 7bb2 623f a695 473f
00000050: 5fdd 6a3f 4856 6d3f a26d 5a3f f111 853f
00000060: 0575 553f b631 693f e090 833f fc15 703f
00000070: f431 883f c995 6d3f c540 5b3f 6000 753f
00000080: 76b5 5d3f 778a 5e3f 2fe9 693f 1aeb 603f
00000090: 6775 843f 03dd 573f dd4c 543f 9b05 4f3f
000000a0: 5d7e 763f 8c79 833f d3a2 683f b71a 7b3f
000000b0: a4f9 723f 72d0 5a3f 0cd4 703f 8a3e 783f

cnn.9.bias f4 [48]
-0.44725966 -0.5176963 -0.45186073 -0.344479 -0.47405222 -0.26932868 -0.4532287 -0.49145538
-0.41707116 -0.4149326 -0.41351482 -0.37290323 -0.50155544 -0.35258585 -0.4393969 -0.50591356
-0.32620734 -0.3948238 -0.51019496 -0.23937966 -0.32450724 -0.46335864 -0.36449745 -0.611896
-0.4693879 -0.58089834 -0.5666303 -0.33230293 -0.54089093 -0.46922144 -0.5016236 -0.46719548
-0.46328026 -0.5468364 -0.41139996 -0.3579309 -0.5205688 -0.44108155 -0.49445656 -0.5174445
-0.5557266 -0.46705225 -0.588262 -0.48101178 -0.41761237 -0.5478319 -0.41309476 -0.36777523
00000000: 38ff e4be bf87 04bf 4a5a e7be 8d5f b0be
00000010: f9b6 f2be 73e5 89be 980d e8be 0aa0 fbbe
00000020: 5a8a d5be 0c72 d4be 37b8 d3be 2ced bebe
00000030: f065 00bf 2286 b4be a1f8 e0be 8d83 01bf
00000040: a604 a7be 5826 cabe 239c 02bf f11f 75be
00000050: d025 a6be 583d edbe 699f babe 37a5 1cbf
00000060: 9c53 f0be c1b5 14bf af0e 11bf 9c23 aabe
00000070: d477 0abf cb3d f0be 676a 00bf 3f34 efbe
00000080: 1233 edbe 78fd 0bbf 04a3 d2be b842 b7be
00000090: ff43 05bf 71d5 e1be 6929 fdbe 3e77 04bf
000000a0: 1944 0ebf 7921 efbe 5798 16bf 2d47 f6be
000000b0: 4ad1 d5be b63e 0cbf 2881 d3be 094d bcbe

cnn.9.running_mean f4 [48]
-2.2145886 -1.3165175 -1.6857842 -1.263236 -1.4714904 -1.2813364 -1.5359282 -1.5095351
-0.32170278 -1.6223754 -1.5267457 -1.6503608 -1.1167783 -1.4125128 -0.8573547 -0.91134584
-0.57340723 -1.9800038 -1.7841316 -0.015138901 -0.21516617 -1.0577854 -1.1824366 -1.2704246
-1.814364 -1.2522597 -1.3880848 -1.0388355 -1.5486407 -1.1717019 -2.2123864 -1.7682809
-0.91501015 -1.0144118 -0.7551614 -1.9476869 -1.8104823 -0.9563973 -1.5648849 -1.2944456
-1.6003107 -2.0289452 -2.0492508 -1.4636688 -1.86912 -1.4934841 -1.2916678 -1.287884
00000000: d2bb 0dc0 a583 a8bf c7c7 d7bf b8b1 a1bf
00000010: cc59 bcbf d502 a4bf 4c99 c4bf 7238 c1bf
00000020: 3ab6 a4be ffa9 cfbf 676c c3bf 063f d3bf
00000030: 97f2 8ebf 38cd b4bf 997b 5bbf f64d 69bf
00000040: d1ca 12bf c470 fdbf 6d5e e4bf 2709 78bc
00000050: 8554 5cbe 8365 87bf 155a 97bf 469d a2bf
00000060: 143d e8bf 0c4a a0bf c3ac b1bf 90f8 84bf
00000070: dc39 c6bf 54fa 95bf bd97 0dc0 0757 e2bf
00000080: 1b3e 6abf 3fd8 81bf 4252 41bf ce4d f9bf
00000090: e2bd e7bf 74d6 74bf 264e c8bf 65b0 a5bf
000000a0: fbd6 ccbf 3dda 01c0 ed26 03c0 8059 bbbf
000000b0: 533f efbf 7d2a bfbf 5f55 a5bf 62d9 a4bf

cnn.9.running_var f4 [48]
2.1922092 1.928907 1.8565745 1.598405 2.2938323 2.781492 2.3465767 2.4978116
2.096 1.4147884 1.8153032 2.0037906 2.2576108 1.9577525 1.9493378 2.30917
2.586024 2.345155 2.3454316 2.166763 2.4151757 1.8476275 2.7894595 2.7817485
1.8546158 2.0936635 2.8173923 2.107295 2.4667547 1.6844503 2.2405963 1.4566317
1.7660518 2.16725 1.2964784 1.2893925 2.468598 2.0222206 1.8800365 2.2867856
2.3543754 2.775269 2.0139236 2.4439888 2.056582 2.1711657 2.673465 2.2387784
00000000: 284d 0c40 6de6 f63f 3ca4 ed3f 8998 cc3f
00000010: 26ce 1240 f703 3240 502e 1640 25dc 1f40
00000020: dd24 0640 c917 b53f db5b e83f 1b3e 0040
00000030: b27c 1040 a297 fa3f e783 f93f 71c9 1340
00000040: 6b81 2540 0517 1640 8d1b 1640 3fac 0a40
00000050: 3d92 1a40 0f7f ec3f 8186 3240 2b08 3240
00000060: 0d64 ed3f 95fe 0540 2850 3440 ecdd 0640
00000070: 4fdf 1d40 119c d73f ee65 0f40 e872 ba3f
00000080: fc0d e23f 39b4 0a40 01f3 a53f d00a a53f
00000090: 82fd 1d40 106c 0140 09a5 f03f b25a 1240
000000a0: 16ae 1640 029e 3140 20e4 0040 506a 1c40
000000b0: 0a9f 0340 61f4 0a40 0d1a 2b40 2548 0f40

cnn.12.weight f4 [64, 48, 3, 3]
0.12836172 0.08836959 -0.1090299 0.07330317 -0.052431438 -0.023082532 0.13977958 -0.13145949
-0.0011539088 0.19855063 0.114465326 -0.007659935 -0.20523939 -0.09977166 0.0032880437 -0.40618795
-0.1655519 0.012614182 -0.08589713 -0.26947093 -0.18510684 0.2995521 0.032375354 -0.08526055
-0.17772174 -0.037740044 -0.070555076 0.11049834 0.07777814 0.041707266 -0.075661376 0.04311164
-0.05935899 0.07289223 -0.038668618 0.014062193 -0.057028413 -0.107190244 0.016110143 -0.14364001
-0.086092524 0.27115324 -0.23062366 -0.070044324 0.06393353 0.08655094 -0.07282465 -0.038053684
-0.20144062 -0.20884302 0.0024389438 -0.086411 -0.06221306 -0.14151011 0.052557647 -0.15804774
-0.119019814 0.0103394305 -0.07867762 0.0628073 -0.16144833 -0.055471722 -0.048970677 -0.030357564
-0.10659095 -0.16484024 -0.20884165 -0.12040683 -0.03525275 0.03088618 0.0033780518 0.0901126
-0.049812436 0.02883345 -0.10403284 -0.0046988046 0.15914556 0.022996701 0.053939566 -0.037121322
-0.055594373 0.0045177583 0.13543749 0.16695346 0.004994197 -0.12299991 -0.11559223 0.017513713
0.024470221 0.06887292 0.032517392 0.012162199 -0.21302043 0.053091716 0.122785136 0.11500508
-0.12326251 -0.10364204 0.12641409 0.07582579 -0.025852548 0.0070263497 -0.04285352 -0.019620523
-0.0065302737 -0.06339816 -0.035674956 -0.13772818 -0.12627919 0.027339563 0.100491896 -0.06425737
-0.14787939 -0.15615812 0.02163965 0.04398958 0.120140076 -0.02480818 -0.052465495 0.13594997
0.12519054 0.056964166 0.17871086 0.13917299 0.03535358 0.02315067 -0.1253912 0.05993029
0.23861146 -0.13393265 -0.01954899 0.13979934 -0.161613 0.003078559 -0.1766561 0.060753684
0.036786743 0.047737315 -0.21751162 -0.0144758 0.13413917 0.010890089 0.08104187 0.074585475
0.049932085 0.03491456 -0.049634866 0.12884642 -0.010556082 0.15808095 0.14968164 0.02359062
0.03213349 -0.067433305 -0.09214194 0.068468235 -0.2510947 0.02008796 0.1100465 0.049885925
0.12920219 0.09471217 -0.20874564 -0.28456223 -0.109842405 -0.047690365 -0.19432305 -0.06127557
-0.0825416 0.0061249435 0.009685717 0.0441679 -0.03258933 0.08204827 0.033881538 -0.040664453
-0.22780259 0.11054295 0.21528521 0.11651776 -0.25525534 0.056659404 -0.0029139307 -0.13039416
-0.077720396 -0.09295663 0.030290829 0.0024287251 0.099010885 -0.06738694 -0.067334436 -0.24805287
-0.020367404 -0.09540682 -0.002329166 0.15440595 0.15014246 -0.0937417 -0.04841135 -0.07128277
-0.28282666 -0.03642777 0.010131004 -0.26313126 0.19582321 0.07003104 0.11722506 -0.12766407
-0.14804053 -0.08085437 -0.07006027 -0.10834163 0.2387687 -0.06867661 -0.12387799 -0.10401829
0.009169539 0.057094358 -0.03939205 -0.034269392 0.043288574 0.031536818 0.043996915 0.02313811
0.12388641 0.012316163 -0.027651843 -0.17673518 -0.17066392 -0.16228922 -0.037481382 -0.03753022
-0.056681935 0.020316323 -0.048137773 -0.04520894 -0.15230271 -0.074309625 -0.14320028 0.03589984
-0.21182348 -0.005859691 -0.0044050533 -0.035448056 -0.04525097 0.030485896 -0.036265574 0.12689744
-0.09796174 0.063223146 0.1298868 0.023690281 0.037778422 -0.15853846 0.10889504 0.02916009
00000000: 4171 033e 1efb b43d 114b dfbd f91f 963d
00000010: 59c2 56bd 9417 bdbc 6122 0f3e 519d 06be
00000020: c13e 97ba db50 4b3e cc6c ea3d 3100 fbbb
00000030: 462a 52be 1655 ccbd 387c 573b def7 cfbe
00000040: 7086 29be b7ab 4e3c d6ea afbd 18f8 89be
00000050: a68c 3dbe e55e 993e 059c 043d 159d aebd
00000060: b0fc 35be 4e95 1abd 2e7f 90bd f44c e23d
00000070: 254a 9f3d 3dd5 2a3d 5af4 9abd d595 303d
00000080: 6a22 73bd 8548 953d fc62 1ebd 1d65 663c
00000090: a096 69bd 8f86 dbbd 6bf9 833c 5e16 13be
000000a0: 4751 b0bd 99d4 8a3e 9c28 6cbe 6673 8fbd
000000b0: 95ef 823d 9f41 b13d 1725 95bd 2ede 1bbd
000000c0: 7346 4ebe f2da 55be b0d6 1f3b 40f8 b0bd
000000d0: 1fd3 7ebd 07e8 10be b046 573d 44d7 21be
000000e0: a9c0 f3bd b766 293c bb21 a1bd 1da1 803d
000000f0: b652 25be 5136 63bd 7a95 48bd 6db0 f8bc
00000100: 5b4c dabd e1cb 28be 96da 55be db97 f6bd
00000110: 3065 10bd 0405 fd3c 4e62 5d3b f48c b83d
00000120: 2008 4cbd 2134 ec3c 2b0f d5bd 6ef8 99bb
00000130: 0ef7 223e 9463 bc3c bcef 5c3d 870c 18bd
00000140: edb6 63bd b409 943b 20b0 0a3e d9f5 2a3e
00000150: 5ca6 a33b 60e7 fbbd 9ebb ecbd eb78 8f3c
00000160: c675 c83c 3f0d 8d3d f530 053d f643 473c
00000170: 0722 5abe b376 593d c676 fb3d c987 eb3d
00000180: 0e71 fcbd 4742 d4bd b272 013e 8d4a 9b3d
00000190: b9c8 d3bc 4b3d e63b 2c87 2fbd 38bb a0bc
000001a0: e8fb d5bb e5d6 81bd e71f 12bd 9e08 0dbe
000001b0: 554f 01be 38f7 df3c b2ce cd3d 5e99 83bd
000001c0: b26d 17be eae7 1fbe a345 b13c 6b2e 343d
000001d0: 000c f63d 863a cbbc 0fe6 56bd 7836 0b3e
000001e0: f331 003e 4253 693d fbff 363e 5d83 0e3e
000001f0: eace 103d 79a6 bd3c 8d66 00be 7779 753d
00000200: 9056 743e a425 09be 3425 a0bc 8f27 0f3e
00000210: e17d 25be a6c1 493b 56e5 34be dbd8 783d
00000220: b2ad 163d 3488 433d 5ebb 5ebe e82b 6dbc
00000230: c75b 093e 586c 323c 48f9 a53d 45c0 983d
00000240: 9685 4c3d 9202 0f3d ee4d 4bbd 51f0 033e
00000250: 6bf3 2cbc f9df 213e 2546 193e 1e41 c13c
00000260: 689e 033d 791a 8abd eab4 bcbd 1339 8c3d
00000270: 7c8f 80be 818f a43c 0f60 e13d 2f55 4c3d
00000280: 944d 043e 74f8 c13d 6bc1 55be 24b2 91be
00000290: 0ef5 e0bd f956 43bd 9ffc 46be 18fc 7abd
000002a0: 920b a9bd c0b3 c83b d7b0 1e3c 66e9 343d
000002b0: 647c 05bd ec08 a83d 5ec7 0a3d c58f 26bd
000002c0: 1545 69be 5864 e23d ba73 5c3e dda0 ee3d
000002d0: d4b0 82be b113 683d a5f7 3ebb 0c86 05be
000002e0: df2b 9fbd 0c60 bebd 7924 f83c 3f2b 1f3b
000002f0: 38c6 ca3d 2a02 8abd a3e6 89bd 9201 7ebe
00000300: 8bd9 a6bc a764 c3bd eca4 18bb 981c 1e3e
00000310: f2be 193e a6fb bfbd fb4a 46bd b3fc 91bd
00000320: a8ce 90be 4935 15bd 83fc 253c 24b9 86be
00000330: e185 483e 6f6c 8f3d b113 f03d 5fba 02be
00000340: f097 17be fa96 a5bd c27b 8fbd 37e2 ddbd
00000350: c87f 743e 53a6 8cbd beb3 fdbd 8b07 d5bd
00000360: d63b 163c c6db 693d 8f59 21bd 105e 0cbd
00000370: 5c4f 313d c02c 013d 1c36 343d 228c bd3c
00000380: 28b8 fd3d bbc9 493c 1e86 e2bc 11fa 34be
00000390: 86c2 2ebe 252f 26be 1486 19bd 4ab9 19bd
000003a0: 512b 68bd 6b6e a63c 1d2c 45bd 022d 39bd
000003b0: 3ef5 1bbe a52f 98bd 18a3 12be b60b 133d
000003c0: 41e8 58be a702 c0bb 4458 90bb fb31 11bd
000003d0: 1559 39bd 8fbd f93c 368b 14bd 67f1 013e
000003e0: 2aa0 c8bd 237b 813d 0c01 053e 1f12 c23c
000003f0: 8cbd 1a3d e857 22be 5d04 df3d 24e1 ee3c

cnn.12.bias f4 [64]
-0.000796433 0.050274868 -0.016361872 0.0370006 -0.031452727 -0.022907732 0.051261418 -0.03270939
-0.039262492 0.011673161 -0.0034062092 0.09208859 -0.063738465 -0.055486977 -0.032012016 0.03155299
0.014597017 0.04246992 0.050159212 0.014503315 0.02215259 -0.0150910085 -0.0064750244 0.04580529
-0.047984242 -0.0503831 0.06584495 -0.041535784 0.049609493 0.020225352 -0.06477813 0.048882987
0.023394067 0.017857421 0.039250202 0.024374912 0.014151779 -0.01789143 -0.045372818 0.021744944
-0.030261206 0.035164732 -0.0662651 0.04018008 -0.012091178 -0.02108448 -0.061012857 -0.0023990644
-0.024986882 -0.023065528 -0.028727867 -0.019112872 -0.004198226 -0.06110833 -0.047108226 0.0010835659
0.023288311 -0.010994661 -0.033980884 -0.05062802 -0.007759871 0.045162275 -0.014612971 0.03248046
00000000: b7c7 50ba 05ed 4d3d 5509 86bc f18d 173d
00000010: 93d4 00bd ffa8 bbbc 7ef7 513d 48fa 05bd
00000020: b5d1 20bd c940 3f3c b53a 5fbb f198 bc3d
00000030: 5089 82bd 5046 63bd 081f 03bd b53d 013d
00000040: 5428 6f3c f0f4 2d3d bf73 4d3d 509f 6d3c
00000050: 5979 b53c 4740 77bc 712c d4bb 549e 3b3d
00000060: 208b 44bd 825e 4ebd b8d9 863d 6d21 2abd
00000070: 5333 4b3d a3af a53c 65aa 84bd 8739 483d
00000080: eaa4 bf3c ba49 923c d2c4 203d e5ad c73c
00000090: dddc 673c 0c91 92bc d9d8 39bd 7422 b23c
000000a0: 59e6 f7bc e508 103d ffb5 87bd de93 243d
000000b0: 141a 46bc 5cb9 acbc 9ee8 79bd 9f39 1dbb
000000c0: 4ab1 ccbc ebf3 bcbc b456 ebbc 9992 9cbc
000000d0: 4691 89bb ba4c 7abd 8ef4 40bd 7006 8e3a
000000e0: 21c7 be3c f322 34bc 8a2f 0bbd 545f 4fbd
000000f0: 8446 febb 14fc 383d 3e6b 6fbc 3b0a 053d

cnn.13.weight f4 [64]
1.1593788 1.0988055 1.1613388 1.2049401 1.0966074 1.1443142 1.073139 1.1298376
1.0942515 1.059527 1.047348 1.0367682 1.073148 1.2852788 1.1463708 1.0159909
1.3015115 1.1488329 1.0815986 1.0993385 1.11427 1.138319 1.0035189 1.2436181
1.0440516 1.0580078 1.2231623 1.1883373 1.0548903 1.0554994 1.1385942 1.1937501
1.0723921 1.1262848 1.1945287 1.1803682 1.1161234 1.1211572 1.1901817 1.0898191
1.1591619 1.1986213 1.1374154 1.2067531 1.0311427 1.1047555 1.1751624 1.1878402
1.0425076 1.1668257 1.0341091 1.2212659 1.2171775 1.0649558 1.1456952 1.0542839
1.0504051 1.1584289 1.041373 1.1967022 1.0381883 1.1647003 1.1449333 1.09061
00000000: 8666 943f a9a5 8c3f c0a6 943f 7a3b 9a3f
00000010: a25d 8c3f e378 923f 9e5c 893f 859e 903f
00000020: 6f10 8c3f 959e 873f 800f 863f d2b4 843f
00000030: ea5c 893f 0484 a43f 47bc 923f fd0b 823f
00000040: ee97 a63f f50c 933f d371 8a3f 20b7 8c3f
00000050: 66a0 8e3f 70b4 913f 4f73 803f e12e 9f3f
00000060: 7ca3 853f cd6c 873f 9590 9c3f 701b 983f
00000070: a506 873f 9b1a 873f 74bd 913f cecc 983f
00000080: 2544 893f 1a2a 903f 51e6 983f 4e16 973f
00000090: 22dd 8e3f 1482 8f3f e057 983f 317f 8b3f
000000a0: 6b5f 943f 6c6c 993f d496 913f e376 9a3f
000000b0: 7cfc 833f a168 8d3f b96b 963f 260b 983f
000000c0: e470 853f 8b5a 953f b05d 843f 7152 9c3f
000000d0: 79cc 9b3f 7950 883f 24a6 923f c6f2 863f
000000e0: ad73 863f 6647 943f b64b 853f 8a2d 993f
000000f0: 5be3 843f e614 953f 2d8d 923f 1c99 8b3f

cnn.13.bias f4 [64]
-0.10149519 -0.064730845 -0.21900488 -0.24068777 -0.070814766 -0.10114988 -0.10832084 -0.040484563
-0.03170453 -0.20253561 -0.14231087 -0.10452761 -0.12876958 -0.2977477 -0.18378688 -0.1559906
-0.050730474 -0.014816686 -0.17350669 -0.26680124 -0.0827662 -0.12722373 -0.1092926 -0.014921411
-0.13742875 -0.15398413 -0.16650374 -0.0068002 -0.15453368 -0.027560445 -0.2243877 -0.23895916
-0.043824818 -0.084033884 -0.32627216 -0.20368944 -0.16415475 -0.071572475 -0.20138869 -0.19680947
-0.148293 -0.053084973 -0.086623535 -0.17045696 -0.22944392 -0.16794978 -0.12948328 -0.109955415
-0.21738493 -0.25458133 -0.15859334 -0.2316358 -0.093955815 -0.020657267 0.0023221446 -0.122097135
-0.13108648 -0.11816377 -0.16058655 -0.109368384 -0.20037335 -0.033038557 -0.13225213 -0.15646411
00000000: b6dc cfbd 9b91 84bd d142 60be db76 76be
00000010: 5507 91bd ab27 cfbd 51d7 ddbd 24d3 25bd
00000020: 9cdc 01bd 7f65 4fbe f1b9 11be 9212 d6bd
00000030: 2cdc 03be 6372 98be a132 3cbe 00bc 1fbe
00000040: c2ca 4fbd afc1 72bc bdab 31be 2c9a 88be
00000050: 5381 a9bd f046 02be ccd4 dfbd ef78 74bc
00000060: 1fba 0cbe 04ae 1dbe f57f 2abe 36d4 debb
00000070: 143e 1ebe 71c6 e1bc e4c5 65be b6b1 74be
00000080: a781 33bd f519 acbd 250d a7be f793 50be
00000090: 2f18 28be 9794 92bd d638 4ebe 6c88 49be
000000a0: 1fda 17be a16f 59bd ae67 b1bd 458c 2ebe
000000b0: 59f3 6abe 07fb 2bbe 4497 04be 4e30 e1bd
000000c0: 289a 5ebe 7c58 82be 4b66 22be ef31 6dbe
000000d0: e86b c0bd 6e39 a9bc 1f2f 183b 100e fabd
000000e0: 893b 06be d9ff f1bd cd70 24be 88fc dfbd
000000f0: ac2e 4dbe 7053 07bd 1a6d 07be 2138 20be

cnn.13.running_mean f4 [64]
-1.0669018 -0.666545 -0.45054752 -0.6216172 0.3737729 -0.56752676 -0.1979399 -0.864702
-0.30646843 -0.4405881 -0.67786324 -0.022413526 -0.77372664 -0.38612697 -0.10544596 -0.13066277
-0.39984134 0.9003153 -0.6528257 -0.24572593 -0.22712454 0.051949836 -0.29140458 -0.41943467
-0.108102016 -0.61237156 -0.35312346 -0.015203944 1.1053563 -0.31428924 -0.7861542 -0.7845049
-0.5351792 -0.27980292 0.15585794 -0.6166407 -0.483986 -0.38941145 -0.25371867 0.08595384
-0.22831193 -0.30278873 0.017115464 -0.39225665 -0.23487355 -0.59583026 -0.123394474 -0.21637625
-0.19229136 -0.042213358 -0.17255677 -0.55968547 -0.6183908 0.7818207 -0.4135507 -0.15317957
-0.23791555 -0.70164824 -0.22319113 0.43838143 -0.35336477 -0.07337237 -0.2541085 -0.10149906
00000000: 3d90 88bf b1a2 2abf 2aae e6be 4e22 1fbf
00000010: 295f bf3e 6f49 11bf c2b0 4abe 1c5d 5dbf
00000020: 6ee9 9cbe c394 e1be 7288 2dbf 929c b7bc
00000030: f312 46bf 6fb2 c5be 0df4 d7bd 76cc 05be
00000040: 01b8 ccbe 107b 663f 961f 27bf 949f 7bbe
00000050: 5693 68be 5ac9 543d fb32 95be 24c0 d6be
00000060: 9764 ddbd 62c4 1cbf 99cc b4be f719 79bc
00000070: 517c 8d3f 85ea a0be 6741 49bf 50d5 48bf
00000080: 8101 09bf 5442 8fbe 3999 1f3e 2adc 1dbf
00000090: 03cd f7be f060 c7be 6ae7 81be 9108 b03d
000000a0: 9aca 69be 2007 9bbe bb35 8c3c ddd5 c8be
000000b0: b182 70be 5588 18bf 3eb6 fcbd bc91 5dbe
000000c0: 07e8 44be eae7 2cbd b9b2 30be 8c47 0fbf
000000d0: dc4e 1ebf 6725 483f ebbc d3be 1bdb 1cbe
000000e0: 22a0 73be 389f 33bf 378c 64be 8873 e03e
000000f0: 3aec b4be 4144 96bd 821a 82be bdde cfbd

cnn.13.running_var f4 [64]
1.6488299 1.2755864 1.6490914 1.5851655 1.5539706 1.5325427 0.90172243 1.2379
1.5029095 1.0263429 1.1255742 0.94231397 1.7678387 1.2518797 1.3832358 1.5592712
1.8259884 1.2216238 1.3897982 1.6836936 1.2135038 0.9025443 1.2474427 1.7530951
1.1108024 1.9651206 1.1762055 1.7480876 1.1806778 1.9409728 1.3865632 1.8192608
1.2747563 1.3062463 1.1053069 1.4783585 1.1453904 1.3759234 1.2934709 1.4372089
1.2719954 1.4869757 1.3567828 1.5171762 0.9844088 1.1422298 1.2628603 1.4346478
1.3152276 0.8266444 0.8986298 1.010963 1.7031769 2.3261273 2.0972307 1.7596298
0.86559457 1.2314858 1.1486071 1.5118076 1.3895793 1.8157866 1.6397032 1.125335
00000000: dc0c d33f 6a46 a33f 6d15 d33f b4e6 ca3f
00000010: 82e8 c63f 5c2a c43f 48d7 663f 8273 9e3f
00000020: 575f c03f 345f 833f d112 903f 7d3b 713f
00000030: 8a48 e23f 983d a03f df0d b13f 3396 c73f
00000040: fdb9 e93f 2b5e 9c3f e8e4 b13f 4683 d73f
00000050: 1854 9b3f 250d 673f 34ac 9f3f 6c65 e03f
00000060: c62e 8e3f 1289 fb3f e78d 963f 56c1 df3f
00000070: 7320 973f cc71 f83f e77a b13f 8add e83f
00000080: 372b a33f 1433 a73f b27a 8d3f da3a bd3f
00000090: 279c 923f 421e b03f 7490 a53f 76f6 b73f
000000a0: bfd0 a23f 3855 be3f 0fab ad3f d432 c23f
000000b0: 3702 7c3f 9634 923f 68a5 a13f 8aa2 b73f
000000c0: 6159 a83f f89e 533f 9a0c 663f 3c67 813f
000000d0: b301 da3f 45df 1440 0739 0640 8d3b e13f
000000e0: 9b97 5d3f 54a1 9d3f 8f05 933f e982 c13f
000000f0: bcdd b13f b26b e83f cbe1 d13f fa0a 903f

cnn.16.weight f4 [64, 64, 1, 1]
0.13030635 -0.0019396188 -0.18721262 -0.07230659 -0.13760236 -0.18645301 -0.04622926 -0.10265956
0.077965446 0.123889804 0.15428784 -0.20983097 -0.06878741 -0.39288306 -0.1402074 -0.035726678
-0.15879278 0.032590486 -0.18749973 0.06372855 0.11339663 0.06125288 0.033928584 0.093886554
0.019896647 0.044675585 0.14178962 0.14303145 -0.24327487 0.17462517 -0.14029197 -0.13356669
0.061101314 0.20898247 0.20762476 -0.054939583 -0.15420356 -0.14355211 0.23481554 -0.20176713
0.08980298 0.010898865 0.08844267 -0.06876778 0.028096406 -0.11075098 0.30891004 0.023399021
0.045821078 -0.14239456 0.025244521 0.04611362 -0.006341919 0.05037327 -0.021005621 -0.15525073
-0.17851569 -0.38069403 0.1803702 -0.19467162 -0.10189803 0.17403896 -0.113642804 -0.05270368
0.12092192 -0.04938502 0.10544173 0.00046093029 0.002993595 0.016117066 -0.00247891 0.048891988
-0.24105877 -0.0595886 -0.033290636 -0.20430465 -0.010026576 0.24338782 -0.1393425 0.15810986
-0.23089051 0.1289299 0.0299556 0.26099458 0.050492216 0.23456813 0.030324848 0.22325276
0.0461034 -0.07154463 -0.072820924 -0.11161436 -0.077962056 0.14234962 0.10799453 0.07869201
-0.20129894 0.023119235 -0.07075972 -0.037664365 0.039524246 -0.0047502057 -0.029824803 0.19272412
-0.12311858 0.10709304 -0.03511247 0.14144713 0.18627928 0.05995544 -0.096843004 -0.075895675
0.017887723 0.06537166 0.12682146 -0.09965009 -0.05396617 -0.07599957 -0.023224117 0.124258816
0.08792468 -0.06930935 0.045421235 -0.13651872 0.25284994 -0.2447122 -0.020518621 0.1619211
0.15842368 -0.02684381 -0.02695635 0.009797627 -0.020835634 -0.07227073 0.036123857 -0.12486172
0.111315586 -0.11801608 0.0052622184 -0.021830179 0.039902754 0.14310257 0.06903044 0.14930654
-0.24314001 -0.040747833 0.25464973 -0.09384326 -0.10551457 -0.020679684 -0.15370075 -0.017739384
-0.15833922 0.15793493 0.03176456 -0.052244164 0.07023433 0.14539783 0.050387062 -0.06388037
-0.10164645 0.20461348 0.25939724 0.09328908 -0.120670214 0.11635618 -0.13300973 0.17355727
-0.09037143 -0.18942322 -0.024796832 0.12751554 0.13666917 -0.1737961 0.19953744 0.06977468
-0.0042663002 0.036544852 0.10539954 -0.020558795 0.07633163 -0.12773436 -0.03878799 0.08792609
0.03057026 -0.25328827 0.06831033 0.18119751 0.08474676 0.074350104 -0.2105788 0.14070147
0.12256441 0.14030136 -0.36124328 -0.03641055 0.012212355 -0.12386258 -0.109705195 -0.07490031
0.012331827 0.05204597 -0.06162895 0.17658776 -0.20207308 -0.22068009 0.06116122 -0.1571173
-0.0062958007 0.022505809 -0.18505457 -0.056198288 0.2102337 -0.07847574 -0.123748876 -0.1551383
-0.17184642 -0.294577 0.11596738 -0.041869428 -0.01615042 -0.17848681 -0.19295166 0.058811743
0.067952804 0.120321445 -0.11926533 0.22225411 0.1505528 -0.21045387 0.09046168 0.035194412
0.26360402 -0.031837463 0.049382012 -0.2574601 -0.18347895 -0.091186136 -0.20575482 0.103191495
-0.07136862 -0.24366528 0.11307373 0.065377094 0.23516275 -0.04470392 0.11998094 -0.12626977
-0.087210484 -0.0008288752 0.061471794 0.17474979 -0.17186257 0.12790434 -0.14870784 -0.18117163
00000000: 076f 053e cf3a feba aab4 3fbe 7a15 94bd
00000010: a2e7 0cbe 8aed 3ebe e45a 3dbd 2d3f d2bd
00000020: 59ac 9f3d f0b9 fd3d a2fd 1d3e eedd 56be
00000030: 6ae0 8cbd f827 c9be 8792 0fbe 2356 12bd
00000040: 939a 22be 9a7d 053d eeff 3fbe 1d84 823d
00000050: 7e3c e83d 4de4 7a3d b3f8 0a3d 9847 c03d
00000060: 4bfe a23c bffd 363d 4c31 113e d676 123e
00000070: 0c1d 79be f1d0 323e b3a8 0fbe b5c5 08be
00000080: 5f45 7a3d 80ff 553e 969b 543e 5408 61bd
00000090: 8ae7 1dbe 53ff 12be 7c73 703e 0b9c 4ebe
000000a0: a0ea b73d 2791 323c 6e21 b53d 1fd6 8cbd
000000b0: 6f2a e63c 69d1 e2bd 7529 9e3e 4eaf bf3c
000000c0: e2ae 3b3d e1cf 11be 99cd ce3c a3e1 3c3d
000000d0: dfcf cfbb 3454 4e3d fb13 acbc 0cfa 1ebe
000000e0: d1cc 36be 54ea c2be f7b2 383e ff57 47be
000000f0: eaaf d0bd 4537 323e 8fbd e8bd d0df 57bd
00000100: e9a5 f73d f247 4abd d5f1 d73d 04a9 f139
00000110: 3130 443b f007 843c 3575 22bb f742 483d
00000120: 1cd8 76be 2d13 74bd c35b 08bd 3d35 51be
00000130: 8246 24bc a83a 793e cdaf 0ebe 8de7 213e
00000140: 906e 6cbe 3306 043e 7265 f53c 15a1 853e
00000150: edd0 4e3d a132 703e d16b f83c 5f9c 643e
00000160: ebd6 3c3d fe85 92bd 2323 95bd 1296 e4bd
00000170: 92aa 9fbd 19c4 113e 3c2c dd3d 4729 a13d
00000180: 4f21 4ebe 8d64 bd3c 79ea 90bd f345 1abd
00000190: 2de4 213d 9da7 9bbb 2553 f4bc 7959 453e
000001a0: 9825 fcbd 9953 db3d 18d2 0fbd 84d7 103e
000001b0: ffbf 3e3e d693 753d a055 c6bd 316f 9bbd
000001c0: 4689 923c 94e1 853d 7cdd 013e 5915 ccbd
000001d0: a10b 5dbd aaa5 9bbd 8140 bebc 687b fe3d
000001e0: db11 b43d 0ff2 8dbd 9e0b 3a3d 90cb 0bbe
000001f0: 8c75 813e d695 7abe ab16 a8bc a5ce 253e
00000200: d139 223e 8de7 dbbc 90d3 dcbc 3a86 203c
00000210: 7eaf aabc ad02 94bd 9cf6 133d 80b7 ffbd
00000220: 6df9 e33d 6ab2 f1bd b06e ac3b 34d5 b2bc
00000230: 1271 233d 7b89 123e d55f 8d3d d0e3 183e
00000240: b2f9 78be 33e7 26bd 7361 823e e530 c0bd
00000250: 0618 d8bd 7168 a9bc bb63 1dbe 2f52 91bc
00000260: ad23 22be b2b9 213e 8e1b 023d fafd 55bd
00000270: 04d7 8f3d 2be3 143e aa62 4e3d b6d3 82bd
00000280: 042c d0bd 3286 513e b7cf 843e 580e bf3d
00000290: f221 f7bd 264c ee3d b433 08be ffb8 313e
000002a0: a814 b9bd 29f8 41be ba22 cbbc 6f93 023e
000002b0: 01f3 0b3e 9bf7 31be 8b53 4c3e 07e6 8e3d
000002c0: 52cc 8bbb 0eb0 153d b7db d73d eb6a a8bc
000002d0: c253 9c3d cccc 02be 28e0 1ebd 9812 b43d
000002e0: 7b6e fa3c 00af 81be 49e6 8b3d d78b 393e
000002f0: b68f ad3d de44 983d f8a1 57be 0c14 103e
00000300: 0d03 fb3d 29ab 0f3e e1f4 b8be 3b23 15bd
00000310: 5416 483c aaab fdbd 1ead e0bd 5565 99bd
00000320: 6e0b 4a3c 282e 553d a36e 7cbd 6cd3 343e
00000330: 3fec 4ebe f6f9 61be 3084 7a3d 5ce3 20be
00000340: 014d cebb 1a5e b83c f27e 3dbe 2d30 66bd
00000350: 8147 573e e4b7 a0bd 0d70 fdbd 93dc 1ebe
00000360: 82f8 2fbe ccd2 96be 4e80 ed3d 477f 2bbd
00000370: e34d 84bc 3fc5 36be 1f95 45be 95e4 703d
00000380: d72a 8b3d 176b f63d 6241 f4bd 9596 633e
00000390: 832a 1a3e 3881 57be f943 b93d 0428 103d
000003a0: 1bf7 863e 0068 02bd cb44 4a3d cfd1 83be
000003b0: e8e1 3bbe ccbf babd 64b1 52be 1056 d33d
000003c0: b629 92bd 6483 79be 3393 e73d 6de4 853d
000003d0: 81ce 703e 751b 37bd 91b8 f53d dd4c 01be
000003e0: 699b b2bd e048 59ba d9c9 7b3d 9cf1 323e
000003f0: befc 2fbe 5bf9 023e de46 18be 0e85 39be
