hw6/models/pretrain.pth (torch_old, 945628 bytes, 61 tensors)

cnn.0.weight f4 [16, 3, 3, 3]
-0.17569014 0.107851975 0.041569322 -0.10707992 -0.0018472343 0.10523225 -0.15741497 0.121612206
0.040618237 -0.3331674 -0.08874611 0.32805106 -0.3366282 -0.03414279 0.19379279 -0.2859753
0.12566814 0.44057244 -0.31411672 -0.064731166 0.270115 0.038247082 -0.063379236 0.14853205
-0.2612916 -0.028817184 0.2748698 -0.23499605 0.17316741 0.10409698 -0.20827958 0.350916
0.013044098 -0.032520328 0.02647428 -0.32994005 -0.42771658 0.26093462 0.13764796 -0.2537175
-0.035389546 -0.02804419 -0.14093323 -0.2511732 -0.45080283 -0.25620887 0.1590461 0.03791928
-0.14976744 0.016024774 0.20218292 0.051839843 -0.077707 -0.31547996 0.19762498 -0.17616479
-0.12906566 0.037762795 0.008822266 -0.10888875 0.06832545 0.26921657 -0.14372267 0.2039998
-0.11227099 -0.49286708 0.23875709 0.05035355 -0.24270943 0.43230668 0.14733152 -0.22049883
0.07085611 -0.078497835 -0.22063847 0.25459087 0.07333834 -0.32881287 0.1603778 0.22016612
-0.14695297 0.104025185 0.19204962 -0.259964 0.13484506 0.08491687 -0.035222765 -0.046084817
-0.015926532 -0.20638175 0.2624359 0.24039806 -0.07858365 0.38376728 -0.018933972 -0.29013097
0.20402731 -0.14593197 -0.49603593 0.017352464 0.22784747 -0.11267623 0.24639484 0.1661892
-0.24596179 0.16707474 -0.18446963 -0.29786712 0.09140548 -0.067548394 -0.06331053 0.17403562
-0.31574288 0.18630068 -0.0014409791 -0.22532266 0.23029295 0.29553095 -0.106450476 -0.04620441
0.24031754 -0.3294831 -0.12965491 -0.089227624 -0.41015774 0.24805567 0.2911246 -0.16049133
-0.1041606 0.13259397 -0.258346 0.0069193603 -0.09964519 -0.18166119 0.2580509 0.14945687
0.025481941 -0.15697142 -0.13213642 -0.19562301 0.122969545 0.0061748642 0.19527882 0.08525709
0.16138628 0.058464978 -0.20073658 -0.17097725 -0.36469498 -0.20445561 -0.19966868 0.2172156
0.37604022 0.2602488 0.30383876 -0.18507734 -0.122680664 -0.39314866 -0.06700604 -0.15771778
0.14877987 0.20803839 -0.098391645 0.09314269 0.07082954 -0.000520638 -0.0686185 0.1965981
-0.16614361 -0.1911471 0.21195759 -0.13907386 0.41311097 0.31675684 -0.39262453 0.04504309
0.28282207 -0.3732619 -0.19589297 0.057217367 -0.097039014 0.066641465 0.23153402 -0.14592256
-0.0129461475 0.27272436 -0.20629905 -0.2627005 0.094749674 0.22403044 0.13930033 0.18822975
-0.20848224 -0.14087376 -0.3167206 0.02586402 -0.048492353 0.10660822 0.22097842 0.2878032
0.38296315 -0.0433454 -0.32204148 -0.30900046 -0.18448372 0.062455516 -0.085708186 0.27065533
0.16264963 0.18180548 -0.19132012 -0.23482387 -0.2256494 -0.023700431 0.05093165 0.030336088
-0.106338814 -0.2663768 0.06590169 -0.14258094 0.0037968813 0.3374552 0.11015581 0.095752984
-0.07232946 -0.1083727 -0.41205344 -0.073075354 -0.25862265 -0.020184271 0.34539413 0.0037337188
0.12229136 0.38082758 0.0050977287 -0.3514627 -0.055546496 -0.26319227 -0.056590814 0.2984626
-0.0016723636 0.2809785 0.1324023 0.3086989 0.076831505 0.13543905 0.08572814 -0.3169381
-0.041883487 -0.09326343 -0.04761195 0.1745194 0.47263947 -0.2044606 0.26638338 -0.047608886
00000000: 1ee8 33be 7fe1 dc3d 9844 2a3d b84c dbbd
00000010: e61e f2ba 0284 d73d 6431 21be d20f f93d
00000020: 4f5f 263d eb94 aabe 85c0 b5bd 4ff6 a73e
00000030: 885a acbe 4fd9 0bbd 9e71 463e 5b6b 92be
00000040: 26af 003e b692 e13e e8d3 a0be c691 84bd
00000050: 834c 8a3e f9a8 1c3d f9cc 81bd c918 183e
00000060: 03c8 85be 0412 ecbc bcbb 8c3e cea2 70be
00000070: cc52 313e cc30 d53d 3e47 55be 43ab b33e
00000080: eab6 553c 0934 05bd 97e0 d83c e7ed a8be
00000090: abfd dabe 3999 853e 96f3 0c3e 43e7 81be
000000a0: a1f4 10bd eebc e5bc cd50 10be c699 80be
000000b0: a1cf e6be cf2d 83be fbdc 223e 3f51 1b3d
000000c0: a35c 19be 6346 833c 0a09 4f3e 0456 543d
000000d0: d924 9fbd 9786 a1be 345e 4a3e 8b64 34be
000000e0: ca29 04be 29ad 1a3d 448b 103c 1101 dfbd
000000f0: 37ee 8b3d c1d6 893e 092c 13be 53e5 503e
00000100: 55ee e5bd 1359 fcbe bd7c 743e 863f 4e3d
00000110: d288 78be 4d57 dd3e 13de 163e 72ca 61be
00000120: 021d 913d 79c3 a0bd 0def 61be bc59 823e
00000130: 6932 963d 295a a8be 143a 243e 3a73 613e
00000140: d77a 16be 280b d53d a8a8 443e 001a 85be
00000150: d314 0a3e e5e8 ad3d bf45 10bd 6fc3 3cbd
00000160: 5c78 82bc bd55 53be 005e 863e e92a 763e
00000170: 77f0 a0bd 257d c43e 6b1b 9bbc 0c8c 94be
00000180: 89ec 503e 316f 15be 6cf8 fdbe c126 8e3c
00000190: d950 693e ccc2 e6bd ee4e 7c3e 802d 2a3e
000001a0: 68dd 7bbe a415 2b3e 9be5 3cbe 0a82 98be
000001b0: cc32 bb3d d056 8abd f3a8 81bd 6536 323e
000001c0: 0da9 a1be 9bc5 3e3e 3cdf bcba fcba 66be
000001d0: ead1 6b3e d54f 973e b502 dabd d640 3dbd
000001e0: cd15 763e 02b2 a8be 42c4 04be f9bc b6bd
000001f0: 3200 d2be 4e02 7e3e 490e 953e d757 24be
00000200: 2752 d5bd b7c6 073e ed45 84be cdbb e23b
00000210: c712 ccbd 6405 3abe 3f1f 843e 390b 193e
00000220: 81bf d03c 1ebd 20be c54e 07be 6651 48be
00000230: 75d7 fb3d 8456 ca3b 2cf7 473e 459b ae3d
00000240: 7242 253e f978 6f3d e48d 4dbe a914 2fbe
00000250: 4db9 babe d05c 51be f275 4cbe c46d 5e3e
00000260: 5888 c03e 553f 853e c190 9b3e ea84 3dbe
00000270: 0040 fbbd c84a c9be 763a 89bd c580 21be
00000280: c059 183e 0408 553e 8f81 c9bd 98c1 be3d
00000290: 140f 913d 6d7b 08ba db87 8cbd 0351 493e
000002a0: 8d21 2abe 11bc 43be 690b 593e 6169 0ebe
000002b0: 4883 d33e f42d a23e 1506 c9be 1a7f 383d
000002c0: 0ece 903e 2f1c bfbe 2b98 48be c25c 6a3d
000002d0: 64bc c6bd 527b 883d 4117 6d3e b96c 15be
000002e0: 141c 54bc 87a2 8b3e 0f40 53be ae80 86be
000002f0: 1e0c c23d 3c68 653e bfa4 0e3e 4dbf 403e
00000300: 5e7c 55be 3641 10be 3429 a2be c8e0 d33c
00000310: eb9f 46bd 6955 da3d 2b48 623e f15a 933e
00000320: bf13 c43e f28a 31bd 9fe2 a4be 4f35 9ebe
00000330: 4de9 3cbe 5bd1 7f3d c687 afbd 5693 8a3e
00000340: a08d 263e 372b 3a3e 6ce9 43be ab75 70be
00000350: a310 67be 6827 c2bc b59d 503d 6383 f83c
00000360: 2ac8 d9bd 8a62 88be 77f7 863d bd00 12be
00000370: 19d5 783b eec6 ac3e 5f99 e13d 241a c43d
00000380: 7821 94bd 82f2 ddbd abf8 d2be 88a8 95bd
00000390: 306a 84be 7c59 a5bc 80d7 b03e 68b1 743b
000003a0: e473 fa3d d5fb c23e d90a a73b ebf2 b3be
000003b0: b984 63bd 23c1 86be c5cb 67bd 17d0 983e
000003c0: 3633 dbba 6adc 8f3e 7894 073e c80d 9e3e
000003d0: d659 9d3d 89b0 0a3e 3c92 af3d b645 a2be
000003e0: 058e 2bbd e600 bfbd c004 43bd 37b5 323e
000003f0: cdfd f13e 1f5e 51be 6763 883e 8901 43bd

cnn.0.bias f4 [16]
0.41257927 -0.045924168 0.08004189 -0.3377357 0.051816966 0.058634702 -0.075943135 0.10584602
-0.07797806 -0.2701417 -0.073190674 -0.03181377 -0.12406937 0.5127654 0.15332787 -0.024103088
00000000: 973d d33e fb1a 3cbd 01ed a33d b2eb acbe
00000010: 073e 543d f12a 703d 1388 9bbd ccc5 d83d
00000020: f6b2 9fbd 0350 8abe fee4 95bd 284f 02bd
00000030: 1518 febd 9844 033f fb01 1d3e d773 c5bc

cnn.1.weight f4 [16]
1.114277 0.66708827 1.2479929 1.1184157 0.704863 0.50683886 1.157846 1.055412
0.99308693 0.42935896 1.2292529 0.57230794 0.9212612 0.68208057 0.8127006 0.8963915
00000000: a1a0 8e3f 4cc6 2a3f 3bbe 9f3f 3f28 8f3f
00000010: e771 343f 31c0 013f 4c34 943f be17 873f
00000020: f23a 7e3f f0d4 db3e 2958 9d3f c682 123f
00000030: c6d7 6b3f d59c 2e3f 260d 503f ea79 653f

cnn.1.bias f4 [16]
-0.06035854 -0.25940222 -0.08221027 -0.005387229 0.87843263 0.17715397 -0.040666457 0.019542156
-0.100865975 0.048496347 -0.101944305 1.0096684 -0.059210174 0.5390146 0.6041781 1.6417528
00000000: 843a 77bd 5ed0 84be dc5d a8bd 5a87 b0bb
00000010: f6e0 603f da67 353e df91 26bd df16 a03c
00000020: d292 cebd 1ba4 463d 2dc8 d0bd d03c 813f
00000030: 5e86 72bd dcfc 093f 6aab 1a3f f524 d23f

cnn.1.running_mean f4 [16]
0.40662816 0.06351636 0.07514845 -0.32071108 0.095217235 0.07657168 -0.06734544 0.14167006
-0.09994198 -0.33921257 -0.09620642 0.02894876 -0.11551651 0.53960574 0.10185218 -0.10129253
00000000: 9131 d03e de14 823d 6ee7 993d 3e34 a4be
00000010: 4101 c33d 9dd1 9c3d 68ec 89bd f511 113e
00000020: 61ae ccbd 45ad adbe df07 c5bd f325 ed3c
00000030: ec93 ecbd 9a23 0a3f e097 d03d 7572 cfbd

cnn.1.running_var f4 [16]
0.21637098 0.678625 0.2547835 0.24421376 0.13068418 0.07652863 0.25144383 0.22059129
0.21931548 0.40006548 0.29924652 0.3445314 0.14864148 0.07455102 0.20726298 0.35746774
00000000: 5b90 5d3e 5eba 2d3f fc72 823e 2c13 7a3e
00000010: 13d2 053e 0bbb 9c3d 3fbd 803e afe2 613e
00000020: 3d94 603e 62d5 cc3e d736 993e 6b66 b03e
00000030: 7935 183e 35ae 983d bf3c 543e 0306 b73e

cnn.4.weight f4 [32, 16, 3, 3]
-0.14697063 -0.5158745 -0.4770632 0.05463472 -0.004430672 -0.15378153 -0.003485783 0.26486903
0.18325365 0.096213154 0.12019111 0.028853932 -0.24986903 -0.15398714 0.19648488 0.0895367
0.03445703 0.1160497 -0.24988703 -0.37378097 0.0366617 -0.18290664 -0.18062024 0.35524464
0.12841913 0.17963886 0.048954032 -0.048775557 -0.2017217 -0.26919368 0.15525703 -0.12698722
-0.495288 0.019484563 0.2125789 0.15875702 0.14951786 -0.1124781 -0.14316761 0.15730235
-0.17743632 -0.3948075 0.10552639 0.2292641 0.36933434 0.06540027 0.08646732 -0.2046416
0.085545 0.026601454 -0.3430523 -0.06585542 -0.21255969 0.109841056 -0.09777903 -0.067732334
0.15176332 -0.26302415 -0.015225751 0.42538667 0.20533933 0.119311586 -0.06525431 0.11536854
0.21825728 0.051536463 0.11599754 0.2472056 -0.07936314 -0.34883106 -0.15588535 -0.29577023
0.049410157 0.025969265 -0.13579708 0.1875765 -0.07119614 -0.4173682 -0.011431708 0.0042956257
0.1454954 -0.17771003 -0.034862947 0.052319787 -0.0022083162 0.088540226 -0.024852756 0.050142385
0.1819562 -0.10718592 0.15832764 0.23892388 0.06813022 -0.07694475 0.15996048 0.048444204
-0.25614968 -0.032678846 -0.13705972 0.07288536 0.13616695 0.19206041 -0.02796398 0.13229698
0.37501803 0.046602767 -0.053432964 -0.23683187 0.15725854 0.112333626 0.09652003 0.040126283
0.2394798 -0.04970611 -0.19650431 -0.10529893 -0.045900963 -0.18915598 -0.19684346 -0.024120184
-0.29455766 -0.06452662 0.35864693 0.1367995 0.15910333 -0.014599407 0.116146766 0.07830162
0.103300974 -0.14720856 0.071288675 0.13213554 -0.17244688 -0.055636276 -0.19593363 -0.0316719
-0.10351057 0.025129098 0.021756236 -0.20457204 -0.12886195 0.21673918 0.3841773 0.23510395
-0.02094522 0.11494998 -0.2288781 -0.050753806 0.18226354 -0.10984304 -0.15720586 -0.06683149
0.017257832 0.0911692 -0.14217469 -0.03708013 0.10427743 -0.00891503 -0.1337636 0.020537399
-0.21631896 0.033942528 -0.11480348 -0.60858804 0.398758 0.0026282114 -0.26319942 0.44938406
0.029197698 -0.016595682 -0.011991691 -0.057483032 -0.49014917 0.40876403 0.0438808 -0.35228202
0.44153324 0.015904138 0.07667407 -0.0075096195 -0.09173435 -0.09644091 0.30422193 0.04938101
-0.33933857 0.40578568 -0.033314195 -0.028428167 0.12801833 0.12860435 0.13800967 -0.42647824
0.23419927 -0.057126343 -0.048653055 0.04371919 -0.146757 -0.017855456 0.0004795601 0.31586733
-0.35291052 -0.02055285 0.27686954 -0.3291327 0.010576029 -0.12667419 0.15458642 0.15613212
-0.14158294 0.17021298 0.10715492 -0.08888771 0.0939152 -0.061691493 0.034036025 -0.08825477
-0.003114041 0.35145655 -0.3826925 -0.04274738 0.36832088 -0.35450676 -0.028409252 0.037580706
0.072243765 0.010413588 -0.025135102 0.21444951 -0.026545273 0.07379678 -0.029433392 0.0070066964
0.29196048 -0.11326866 0.019918231 0.2171941 -0.1240088 0.08920695 0.116351165 -0.11993875
0.15663008 0.007849544 0.057730872 0.12079233 -0.07339721 0.041757233 0.11582631 -0.25643831
0.029763233 0.13154483 -0.045818217 0.012250339 0.017359253 -0.14315815 -0.17447321 -0.064945385
00000000: 787f 16be 5a10 04bf a141 f4be a8c8 5f3d
00000010: 2c2f 91bb e878 1dbe bc71 64bb ea9c 873e
00000020: d8a6 3b3e 670b c53d c226 f63d 155f ec3c
00000030: abdd 7fbe ceae 1dbe 5533 493e 045f b73d
00000040: d122 0d3d 77ab ed3d 63e2 7fbe 3860 bfbe
00000050: 942a 163d e14b 3bbe 83f4 38be a0e2 b53e
00000060: 4e80 033e 40f3 373e 0684 483d e1c8 47bd
00000070: 2290 4ebe c1d3 89be b3fb 1e3e f008 02be
00000080: 6496 fdbe 179e 9f3c 48ae 593e 3391 223e
00000090: 361b 193e eb5a e6bd 889a 12be de13 213e
000000a0: deb1 35be 3524 cabe 381e d83d 35c4 6a3e
000000b0: 6419 bd3e 94f0 853d c715 b13d 918d 51be
000000c0: 3832 af3d 4beb d93c 8da4 afbe 35df 86bd
000000d0: 3fa9 59be 59f4 e03d 5f40 c8bd 40b7 8abd
000000e0: d867 1b3e 1aab 86be 6e75 79bc 48cc d93e
000000f0: 7944 523e a259 f43d 0da4 85bd 5746 ec3d
00000100: d67e 5f3e e617 533d 1e90 ed3d 7723 7d3e
00000110: 2489 a2bd fc99 b2be 69a0 1fbe 326f 97be
00000120: 4e62 4a3d 7fbd d43c 640e 0bbe 0e14 403e
00000130: 48cf 91bd 49b1 d5be 0f4c 3bbc 52c2 8c3b
00000140: bffc 143e 9ef9 35be 73cc 0ebd 464d 563d
00000150: 66b9 10bb 9454 b53d 0298 cbbc 1a62 4d3d
00000160: ba52 3a3e 4b84 dbbd a420 223e 76a8 743e
00000170: db87 8b3d 3695 9dbd aecc 233e 6e6d 463d
00000180: 0d26 83be 41da 05bd 6259 0cbe eb44 953d
00000190: 596f 0b3e 7cab 443e b714 e5bc dc78 073e
000001a0: 5d02 c03e 8be2 3e3d 86dc 5abd 0e84 72be
000001b0: 6208 213e 2c0f e63d 4bac c53d 755b 243d
000001c0: 313a 753e a298 4bbd 6d38 49be f7a6 d7bd
000001d0: a602 3cbd 1bb2 41be 5591 49be b197 c5bc
000001e0: 43d0 96be 8826 84bd 92a0 b73e 2b15 0c3e
000001f0: fceb 223e 5a32 6fbc 5bde ed3d 9a5c a03d
00000200: 768f d33d d7bd 16be ccff 913d 8a4e 073e
00000210: ea95 30be dde2 63bd d3a2 48be 65ba 01bd
00000220: 5afd d3bd 8adb cd3c 223a b23c 557b 51be
00000230: 63f4 03be e0f0 5d3e e3b2 c43e 17bf 703e
00000240: 4f95 abbc e56a eb3d 055f 6abe 39e3 4fbd
00000250: 4ba3 3a3e 63f5 e0bd 93fa 20be f3de 88bd
00000260: 4c60 8d3c ebb6 ba3d 3e96 11be 56e1 17bd
00000270: 688f d53d 5910 12bc 53f9 08be 0c3e a83c
00000280: b882 5dbe 5207 0b3d 161e ebbd 6dcc 1bbf
00000290: 022a cc3e 123e 2c3b 13c2 86be ab15 e63e
000002a0: 0330 ef3c abf3 87bc cc78 44bc 5473 6bbd
000002b0: d5f4 fabe 8549 d13e 5bbc 333d 4f5e b4be
000002c0: a510 e23e 6549 823c 4b07 9d3d 4113 f6bb
000002d0: 38df bbbd d082 c5bd fac2 9b3e be43 4a3d
000002e0: c9bd adbe 24c3 cf3e 7774 08bd 30e2 e8bc
000002f0: 3d17 033e dcb0 033e 6852 0d3e 5b5b dabe
00000300: efd1 6f3e 50fd 69bd 6d48 47bd e512 333d
00000310: 7847 16be 9b45 92bc 786d fb39 5db9 a13e
00000320: b0b0 b4be 735e a8bc d8c1 8d3e 1584 a8be
00000330: 1547 2d3c e1b6 01be e74b 1e3e 19e1 1f3e
00000340: 1efb 10be 504c 2e3e 0a74 db3d c20a b6bd
00000350: 9d56 c03d 38b0 7cbd 5c69 0b3d ebbe b4bd
00000360: f014 4cbb 1df2 b33e 45f0 c3be e017 2fbd
00000370: 8e94 bc3e e981 b5be 85ba e8bc 3aee 193d
00000380: 8af4 933d c19d 2a3c 21e8 cdbc a798 5b3e
00000390: 7975 d9bc c422 973d 4c1e f1bc 6e98 e53b
000003a0: d87b 953e 66f9 e7bd 8f2b a33c 2168 5e3e
000003b0: 53f8 fdbd 22b2 b63d 8549 ee3d 73a2 f5bd
000003c0: a363 203e 609b 003c 3577 6c3d f861 f73d
000003d0: 4751 96bd a209 2b3d 5836 ed3d e24b 83be
000003e0: 06d2 f33c b0b3 063e e2ab 3bbd a5b5 483c
000003f0: fe34 8e3c 0d98 12be 1ba9 32be 1602 85bd

cnn.4.bias f4 [32]
0.16313112 -0.0105432 0.031046974 -0.026269613 -0.0036984172 -0.031197902 -0.006294177 0.009452661
-0.08807984 -0.1301875 0.09513081 0.045584742 0.10815579 -0.06322723 -0.09519993 0.0669555
-0.064066775 -0.011181609 -0.22418194 -0.022183275 0.027596954 0.028787464 0.15631694 -0.089295775
0.059776768 0.10392937 -0.028575035 0.013717808 0.03719385 -0.13292302 -0.084205374 -0.01732481
00000000: d80b 273e 63bd 2cbc 3956 fe3c 5f33 d7bc
00000010: 2561 72bb be92 ffbc 623f cebb 55df 1a3c
00000020: 3463 b4bd df4f 05be f1d3 c23d 11b7 3a3d
00000030: c880 dd3d 477d 81bd 2ef8 c2bd f71f 893d
00000040: 7135 83bd 1133 37bc f38f 65be b3b9 b5bc
00000050: 0213 e23c b0d3 eb3c 8c11 203e b4e0 b6bd
00000060: 7cd8 743d ecd8 d43d 3116 eabc a8c0 603c
00000070: 9458 183d f91c 08be de73 acbd c3ec 8dbc

cnn.5.weight f4 [32]
1.0174875 0.9832442 0.94306517 0.9614185 1.2178135 0.6202394 0.9916032 0.7634106
0.9431633 0.78932375 1.1363866 1.0260458 0.8077161 0.8684202 0.94448364 1.0239575
1.0084723 1.1463118 0.8577507 0.937971 0.95810395 0.9161563 1.1692036 1.006101
0.9207176 0.89079434 1.0929914 1.0533515 1.2662075 0.92258334 0.95864445 0.6801443
00000000: 083d 823f e4b5 7b3f b86c 713f 861f 763f
00000010: 50e1 9b3f 02c8 1e3f b5d9 7d3f e16e 433f
00000020: 2673 713f 1f11 4a3f 1e75 913f 7855 833f
00000030: 7bc6 4e3f c950 5e3f aec9 713f 0a11 833f
00000040: 9f15 813f 58ba 923f 8d95 5b3f de1e 703f
00000050: 4d46 753f 3889 6a3f 77a8 953f ebc7 803f
00000060: 26b4 6b3f 190b 643f 24e7 8b3f 39d4 863f
00000070: 1613 a23f 6c2e 6c3f b969 753f f01d 2e3f

cnn.5.bias f4 [32]
-0.3124978 -0.16298977 -0.32198626 -0.26572612 -0.46797383 0.18877049 0.05607632 -0.19099025
-0.36596403 -0.2767039 -0.5681449 -0.40681046 -0.22209136 -0.18547188 -0.47112185 -0.3907785
-0.38813064 -0.37079817 -0.14937316 -0.116496995 -0.338978 -0.44015476 -0.44857308 -0.5512497
-0.20551153 -0.2893328 -0.51332414 -0.19925922 -0.42686176 -0.2393597 -0.029672602 -0.11043804
00000000: b6ff 9fbe cae6 26be 62db a4be 410d 88be
00000010: 449a efbe 0d4d 413e 49b0 653d f392 43be
00000020: a35f bbbe 22ac 8dbe f271 11bf 7649 d0be
00000030: eb6b 63be 57ec 3dbe e236 f1be 1f14 c8be
00000040: 0fb9 c6be 42d9 bdbe 47f5 18be fa95 eebd
00000050: 868e adbe f75b e1be 5fab e5be b31e 0dbf
00000060: 9d71 52be 6e23 94be 3669 03bf 9c0a 4cbe
00000070: a08d dabe b61a 75be f513 f3bc 572d e2bd

cnn.5.running_mean f4 [32]
0.7815619 -1.0279543 -1.2013669 -0.27156258 -0.27090076 1.8517202 0.20639463 -1.0575888
-0.80563265 -3.140249 1.2974324 -0.40328434 1.3604577 -2.5070257 -2.5264616 -1.6082478
-2.4691796 -1.034259 -0.8991681 -1.6957659 -2.4193435 -2.7804544 -1.0087054 -3.446354
0.44118837 -0.98784554 -4.318702 -0.16710173 0.02733125 -2.5697465 -1.527646 -2.5776823
00000000: 7114 483f 0294 83bf 64c6 99bf 400a 8bbe
00000010: 81b3 8abe 2b05 ed3f 1d59 533e 125f 87bf
00000020: f13d 4ebf d7f9 48c0 4412 a63f 497b cebe
00000030: 7a23 ae3f 1c73 20c0 8cb1 21c0 10db cdbf
00000040: 0a07 1ec0 9962 84bf e12f 66bf db0e d9bf
00000050: 86d6 1ac0 f7f2 31c0 421d 81bf 1091 5cc0
00000060: 71e3 e13e 72e3 7cbf cf32 8ac0 b71c 2bbe
00000070: c9e5 df3c ba76 24c0 e789 c3bf bff8 24c0

cnn.5.running_var f4 [32]
3.3023765 9.952703 5.575405 2.0112948 10.025656 2.1640882 2.6157923 3.662117
4.566249 5.429148 8.748731 2.5556808 5.0759335 3.9558055 7.7415104 4.484219
6.4768744 7.057423 2.0523777 9.297505 7.159485 11.861405 9.140818 5.269052
7.838974 4.392 14.38126 2.0957453 9.320833 5.750655 5.5682025 4.5143633
00000000: 235a 5340 463e 1f41 b869 b240 0eb9 0040
00000010: 1669 2041 6c80 0a40 2469 2740 2060 6a40
00000020: b61e 9240 95bb ad40 cdfa 0b41 4690 2340
00000030: 0c6e a240 eb2b 7d40 74ba f740 b97e 8f40
00000040: 8e42 cf40 69d6 e140 285a 0340 95c2 1441
00000050: 801a e540 51c8 3d41 ca40 1241 139c a840
00000060: e0d8 fa40 448b 8c40 a419 6641 b120 0640
00000070: 2222 1541 5e05 b840 b72e b240 aa75 9040

cnn.8.weight f4 [48, 32, 3, 3]
0.16416584 0.020616708 -0.22400638 0.04677863 -0.21310042 0.14343071 0.0066590365 0.12120362
-0.088141166 -0.1739723 -0.01691437 0.15460597 -0.6460129 -0.69162226 -0.4469438 -0.1208973
-0.49737796 -0.07254551 -0.47388828 -0.035147212 -0.22123452 -0.2787055 -0.3516066 -0.28020146
-0.19164708 0.0030243578 0.12073111 0.025009498 -0.072774656 0.005158297 -0.16292705 -0.3451765
-0.052534346 0.007171564 -0.032996267 0.034380477 0.07858606 -0.19856396 -0.14748177 -0.29568174
-0.0487275 0.24493521 -0.33177593 0.09109068 0.21043937 0.051308155 -0.010194551 0.109776266
-0.21239233 0.013504865 0.30204102 0.010657765 -0.1893419 -0.05061156 -0.04850951 0.20690903
0.074708916 -0.067200445 -0.02894032 -0.3682282 0.032131623 0.06597895 -0.109125786 -0.1934666
-0.09487095 0.051145513 0.013718392 0.030588549 -0.29191238 0.11545162 0.0088468185 0.20996901
-0.2813028 -0.0015010044 0.11207504 -0.16489643 -0.39538094 0.06325324 -0.19046244 -0.10634422
0.4434504 0.15813278 -0.08033205 0.21827607 0.2496578 0.01683513 -0.11300022 0.23774631
-0.140651 -0.36232758 -0.28480533 -0.10195898 0.16140042 -0.42807704 -0.024449002 0.49074212
-0.43406278 0.119820006 0.24417904 0.05148347 -0.1268495 -0.20922482 0.17354544 0.1753928
-0.12613349 0.057594206 -0.031227712 0.37466374 0.17150427 -0.0797215 -0.006577988 0.015469693
0.104451954 0.048498787 -0.18436357 0.020016719 -0.08232191 0.14473206 -0.0053749797 0.1025504
0.014159068 -0.08827977 0.15505487 -0.06842883 -0.11422062 -0.29973263 -0.14517221 0.104346305
-0.07671479 0.27385792 -0.030414643 -0.15551122 0.1797799 0.047766525 0.2484395 -0.0406338
-0.09459509 0.04265549 -0.11697879 0.0601525 0.2245973 0.058029175 0.16138406 -0.18761887
0.09818009 0.25477663 -0.12793909 0.081632726 -0.2833436 -0.31386262 0.26591492 -0.054868035
-0.33903062 0.19974065 0.06753431 0.032722313 -0.20114927 -0.09872803 -0.26941347 0.111247756
-0.01756354 0.17423058 -0.14070667 0.010827972 0.15734415 -0.3252271 -0.12859744 -0.11092077
-0.11856977 0.033746168 -0.007014986 0.259676 -0.07042571 -0.1549361 0.2572941 -0.17375049
-0.31736752 0.50498027 -0.42987713 -0.1438233 -0.011533693 -0.012030094 -0.034309708 0.18133911
-0.11269707 0.25712475 0.0767381 -0.21840613 -0.08637285 0.12975861 -0.18199565 -0.017508708
-0.20298792 -0.08915765 -0.20901616 -0.05940985 0.19676195 0.06790059 -0.046263963 -0.1258546
0.052532338 0.009837888 0.18555215 0.13003148 0.066526756 0.23100048 -0.10236862 0.37009776
0.03437216 -0.033474866 0.029073304 -0.010415326 0.014823592 -0.08131771 0.021540191 0.34899274
0.05914292 -0.07247944 -0.0472161 -0.055870067 -0.017655274 0.04574378 0.05636051 -0.20218103
0.05157452 -0.5125107 -0.14823529 -0.06957155 -0.11637801 0.08250557 0.15930972 0.16848357
0.023192981 -0.02711647 0.048064645 -0.105297714 0.075633086 -0.059371267 -0.13401291 -0.37736776
0.16004008 0.43623036 -0.007976513 -0.02256163 -0.014811295 -0.103403844 0.047872778 -0.11189728
0.11216449 -0.21553528 -0.075956 -0.088104956 -0.054900393 0.13323793 -0.09228522 -0.06463754
00000000: 171b 283e 5fe4 a83c ee61 65be f39a 3f3d
00000010: ff36 5abe 80df 123e 0c34 da3b 9b39 f83d
00000020: 5b83 b4bd cb25 32be 0190 8abc 0751 1e3e
00000030: 1a61 25bf 280e 31bf d1d5 e4be 0199 f7bd
00000040: 53a8 febe be92 94bd 7ca1 f2be 86f6 0fbd
00000050: 4d8b 62be 7db2 8ebe c805 b4be 9176 8fbe
00000060: 223f 44be 4e34 463b df41 f73d b8e0 cc3c
00000070: e10a 95bd ee06 a93b 59d6 26be f9ba b0be
00000080: 412e 57bd 70ff ea3b 1827 07bd 8bd2 0c3d
00000090: baf1 a03d 5a54 4bbe 7605 17be 9963 97be
000000a0: 7d96 47bd 4cd0 7a3e 89de a9be c08d ba3d
000000b0: 6b7d 573e 8028 523d 0c07 27bc 61d2 e03d
000000c0: 607d 59be 8243 5d3c 1fa5 9a3e e89d 2e3c
000000d0: d8e2 41be 114e 4fbd e8b1 46bd f6df 533e
000000e0: fd00 993d 63a0 89bd 4014 edbc 6888 bcbe
000000f0: 739c 033d f91f 873d 577d dfbd 1c1c 46be
00000100: b34b c2bd f57d 513d 1bc3 603c d694 fa3c
00000110: 8a75 95be e671 ec3d 3ff2 103c 1e02 573e
00000120: ec06 90be 5abd c4ba 9987 e53d 9cda 28be
00000130: 5f6f cabe ea8a 813d 9608 43be 00cb d9bd
00000140: ee0b e33e 8fed 213e 2185 a4bd c383 5f3e
00000150: 4ba6 7f3e d4e9 893c a96c e7bd c573 733e
00000160: d106 10be 0083 b9be 01d2 91be dfcf d0bd
00000170: 2746 253e ea2c dbbe 4649 c8bc 8d42 fb3e
00000180: 7a3d debe 3164 f53d 120a 7a3e 55e0 523d
00000190: d6e4 01be 083f 56be e5b5 313e 2c9a 333e
000001a0: 2329 01be e7e7 6b3d 42d1 ffbc edd3 bf3e
000001b0: d19e 2f3e 0745 a3bd 2a8c d7bb 9874 7d3c
000001c0: e8ea d53d aaa6 463d cec9 3cbe 1afa a33c
000001d0: 6498 a8bd a434 143e 9920 b0bb f205 d23d
000001e0: 70fb 673c 06cc b4bd b4c6 1e3e 6a24 8cbd
000001f0: 80ec e9bd 8e76 99be 06a8 14be 84b3 d53d
00000200: a51c 9dbd 1b37 8c3e 2128 f9bc 553e 1fbe
00000210: 3918 383e d5a6 433d ed66 7e3e a16f 26bd
00000220: 12bb c1bd 86b7 2e3d 9392 efbd 7862 763d
00000230: d6fc 653e 00b0 6d3d dd41 253e 291f 40be
00000240: a512 c93d 1572 823e 7702 03be 0f2f a73d
00000250: 6a12 91be 9ab2 a0be 0026 883e 4ebd 60bd
00000260: 6c95 adbe d088 4c3e 6e4f 8a3d d507 063d
00000270: 13fa 4dbe ec31 cabd 90f0 89be ddd5 e33d
00000280: 6ae1 8fbc 8069 323e 6915 10be ce67 313c
00000290: d31e 213e 2b84 a6be 0caf 03be 6e2a e3bd
000002a0: b5d4 f2bd 6c39 0a3d f8dd e5bb 41f4 843e
000002b0: 5b3b 90bd 92a7 1ebe 0dbc 833e a6eb 31be
000002c0: ff7d a2be 6346 013f db18 dcbe 6a46 13be
000002d0: d1f7 3cbc df19 45bc 5688 0cbd f6b0 393e
000002e0: b9cd e6bd dba5 833e dd28 9d3d dba5 5fbe
000002f0: 40e4 b0bd 71df 043e 115d 3abe 6c6e 8fbc
00000300: 11dc 4fbe 4998 b6bd 5508 56be be57 73bd
00000310: f77b 493e 770f 8b3d 487f 3dbd 07e0 00be
00000320: 262c 573d 182f 213c 6201 3e3e f926 053e
00000330: 2e3f 883d 648b 6c3e a4a6 d1bd 747d bd3e
00000340: d2c9 0c3d f11c 09bd 232b ee3c 0ba5 2abc
00000350: a7de 723c e689 a6bd 0e75 b03c 2daf b23e
00000360: d93f 723d 1a70 94bd ab65 41bd 03d8 64bd
00000370: cba1 90bc d45d 3b3d 47da 663d 8b08 4fbe
00000380: ce3f 533d e733 03bf feca 17be 877b 8ebd
00000390: 9857 eebd aef8 a83d 1622 233e f586 2c3e
000003a0: 35ff bd3c 5c23 debc 6fdf 443d 54a6 d7bd
000003b0: 85e5 9a3d 492f 73bd ae3a 09be 5936 c1be
000003c0: 8ce1 233e 9659 df3e ecaf 02bc 2bd3 b8bc
000003d0: 13ab 72bc 65c5 d3bd 3f16 443d 672a e5bd
000003e0: 7fb6 e53d 48b5 5cbe d28e 9bbd 5f70 b4bd
000003f0: 3cdf 60bd 866f 083e 0900 bdbd b060 84bd

cnn.8.bias f4 [48]
-0.08082475 -0.02764347 -0.03983603 -0.058858346 -0.044098258 0.16900863 -0.054154787 -0.02846392
-0.06347743 0.07501771 -0.13697359 -0.038417384 0.07274874 -0.022032866 -0.040737566 0.06631803
-0.02792767 -0.065165 0.020739814 0.13116334 0.0487314 0.040204413 0.030723684 -0.053027175
-0.042856816 0.053778388 0.08410059 0.123714335 0.06622059 -0.0039543454 -0.048878804 -0.038839143
-0.012347908 0.13408813 -0.029739082 0.042572584 0.06205286 -0.062015485 0.029235946 -0.09812509
0.07758843 0.15976278 -0.01585891 0.07664142 -0.04000736 -0.029319601 -0.22469187 -0.06674574
00000000: 7287 a5bd 8f74 e2bc 1b2b 23bd 7315 71bd
00000010: 60a0 34bd 9910 2d3e 69d1 5dbd 2b2d e9bc
00000020: 7400 82bd e3a2 993d ce42 0cbe 8c5b 1dbd
00000030: 4bfd 943d 457e b4bc 6fdc 26bd bfd1 873d
00000040: 92c8 e4bc 3a75 85bd 8be6 a93c af4f 063e
00000050: 949a 473d 62ad 243d 3cb0 fb3c 0633 59bd
00000060: a18a 2fbd ba46 5c3d ee3c ac3d f15d fd3d
00000070: a99e 873d 7493 81bb 2435 48bd cb15 1fbd
00000080: e14e 4abc 664e 093e 609f f3bc 9760 2e3d
00000090: 242b 7e3d f303 7ebd 3980 ef3c cff5 c8bd
000000a0: afe6 9e3d db98 233e 8bea 81bc 2df6 9c3d
000000b0: c2de 23bd a92f f0bc a015 66be feb1 88bd

cnn.9.weight f4 [48]
0.8442196 0.6616514 0.86516595 0.8593155 0.9387153 0.89480627 0.95855534 0.71819437
0.6248746 1.0919863 0.7672661 0.7052614 0.92915505 0.9958409 0.8289041 0.83194196
0.833647 0.962628 0.84400856 0.9194103 1.0796108 1.0239958 1.0474653 0.8742449
0.9017063 1.0264713 0.8685138 0.7152368 0.85225326 0.74422675 0.88089067 0.9669216
0.98433995 0.86823297 0.9121613 0.810497 0.94694954 1.0162518 0.73261666 1.0723525
0.91189075 0.8915421 0.93763924 1.0377791 0.8780244 0.94188964 0.9931506 0.9186376
00000000: c71e 583f fc61 293f 847b 5d3f 1afc 5b3f
00000010: a54f 703f 0612 653f e263 753f 96db 373f
00000020: c8f7 1f3f 35c6 8b3f 8d6b 443f 038c 343f
00000030: 1bdd 6d3f 6eef 7e3f 0f33 543f 26fa 543f
00000040: e469 553f ca6e 763f f210 583f 795e 6b3f
00000050: b030 8a3f 4b12 833f 5813 863f 84ce 5f3f
00000060: 39d6 663f 6963 833f ec56 5e3f c219 373f
00000070: 452d 5a3f a585 3e3f 0d82 613f 2d88 773f
00000080: b4fd 7b3f 8444 5e3f 6783 693f bb7c 4f3f
00000090: 496b 723f 8a14 823f c48c 3b3f d942 893f
000000a0: ac71 693f 1a3c 643f 2009 703f f2d5 843f
000000b0: 35c6 603f ae1f 713f 1e3f 7e3f d52b 6b3f

cnn.9.bias f4 [48]
-0.44649535 -0.29114833 -0.55532384 -0.43381372 -0.51617813 -0.624542 -0.36392486 -0.18236633
-0.05561163 -0.65494037 -0.4000723 -0.1688956 -0.5669145 -0.48821527 -0.43363985 -0.4549685
-0.48994142 -0.4352888 -0.5081965 -0.5711807 -0.8618907 -0.56712383 -0.4437408 -0.51577556
-0.49050182 -0.41851765 -0.5040846 -0.25229758 -0.33460575 -0.3014289 -0.44331485 -0.5978687
-0.53402156 -0.4751006 -0.4572976 -0.45803803 -0.5650038 -0.48980016 -0.23492743 -0.7370221
-0.44527987 -0.6053858 -0.5755664 -0.2939591 -0.46134523 -0.7008866 -0.657361 -0.529052
00000000: 0a9b e4be 6511 95be b429 0ebf d51c debe
00000010: 4024 04bf fce1 1fbf 5c54 babe 3dbe 3abe
00000020: 05c9 63bd 2caa 27bf 47d6 ccbe f8f2 2cbe
00000030: 4f21 11bf 5af7 f9be 0b06 debe a2f1 e8be
00000040: 9ad9 fabe 2cde debe 2a19 02bf e638 12bf
00000050: dea4 5cbf 072f 11bf fe31 e3be de09 04bf
00000060: 0e23 fbbe f247 d6be b00b 01bf 262d 81be
00000070: 7251 abbe e454 9abe 2afa e2be ec0d 19bf
00000080: a3b5 08bf 6340 f3be e922 eabe f683 eabe
00000090: 17a4 10bf 16c7 fabe d190 70be 7bad 3cbf
000000a0: b9fb e3be 90fa 1abf 5258 13bf cf81 96be
000000b0: 7135 ecbe 4e6d 33bf cf48 28bf f46f 07bf

cnn.9.running_mean f4 [48]
-2.1886537 -2.7298338 -2.7545059 -1.8525196 -1.9131882 -1.587077 -1.9034811 0.6163988
0.44762728 -1.9732118 -1.270614 -1.3794366 -2.1232083 -3.4391575 -1.4661015 -1.5837651
-1.9510036 -2.2825232 -2.241628 -2.3642952 -1.7785379 -1.1893848 -1.2561704 -1.9087404
-2.0829034 -1.6272513 -1.5783672 -0.9977009 -0.57767475 -1.9042033 -2.3825023 -2.6038911
-2.5979798 -2.3933868 -1.7071409 -2.17424 -2.166514 -2.3725758 -2.0247035 -1.5484182
-2.3747544 -2.0358324 -2.7144537 -1.0390234 -1.7422469 -2.460646 -3.2332847 -1.4924507
00000000: e712 0cc0 99b5 2ec0 d349 30c0 5d1f edbf
00000010: 5ae3 f4bf 5725 cbbf 45a5 f3bf 50cc 1d3f
00000020: 672f e53e 3492 fcbf 7ba3 a2bf 6191 b0bf
00000030: a5e2 07c0 281b 5cc0 37a9 bbbf d1b8 cabf
00000040: 7cba f9bf dc14 12c0 d576 0fc0 9d50 17c0
00000050: 21a7 e3bf c33d 98bf 31ca a0bf 9b51 f4bf
00000060: 4a4e 05c0 c549 d0bf f007 cabf 5469 7fbf
00000070: 7ee2 13bf efbc f3bf eb7a 18c0 27a6 26c0
00000080: 4d45 26c0 402d 19c0 9883 dabf c026 0bc0
00000090: 2aa8 0ac0 48d8 17c0 be94 01c0 9132 c6bf
000000a0: fafb 17c0 144b 02c0 9cb9 2dc0 b8fe 84bf
000000b0: f201 dfbf 397b 1dc0 23ee 4ec0 a008 bfbf

cnn.9.running_var f4 [48]
3.2046769 2.9565997 5.007386 4.2578635 3.609775 2.9281929 4.0593066 4.711855
2.5265145 3.8184485 2.526122 3.674621 4.0559087 5.475869 4.4448943 4.3773656
3.9397717 4.930715 4.2146144 3.8377893 3.4128892 3.615587 4.213422 3.0545757
4.670203 2.9926927 3.154803 3.3486662 5.50154 3.3327541 3.5036163 3.6426558
4.4233055 4.570019 4.3964777 2.5491934 4.772405 4.2425747 3.5323844 5.31145
3.5874224 3.5741854 3.7100446 4.917795 3.9688256 4.989327 4.0470505 3.1281936
00000000: 6d19 4d40 ee38 3d40 823c a040 6b40 8840
00000010: 8e06 6740 8367 3b40 d7e5 8140 84c7 9640
00000020: 6ab2 2140 7661 7440 fcab 2140 fe2c 6b40
00000030: 01ca 8140 523a af40 933c 8e40 6113 8c40
00000040: 3825 7c40 6bc8 9d40 1fde 8640 579e 7540
00000050: c76c 5a40 c765 6740 5ad4 8640 2b7e 4340
00000060: 4e72 9540 4788 3f40 4be8 4940 8c50 5640
00000070: 9e0c b040 d84b 5540 403b 6040 4621 6940
00000080: b88b 8d40 983d 9240 f2af 8c40 fc25 2340
00000090: 8bb7 9840 2cc3 8740 9612 6240 66f7 a940
000000a0: 5498 6540 74bf 6440 5f71 6d40 945e 9d40
000000b0: 3d01 7e40 91a8 9f40 7081 8140 5334 4840

cnn.12.weight f4 [64, 48, 3, 3]
0.10538344 -0.07720925 -0.25337818 0.34814364 -0.0412397 -0.03147003 0.053495124 -0.026235005
0.322887 -0.49540615 -0.39712092 -0.30501696 -0.21980682 -0.1775709 -0.16560756 -0.018245142
-0.46731114 -0.20753773 0.16080481 0.16528827 -0.028093072 0.09717701 -0.045963176 -0.20435879
0.124038436 0.10876856 0.22348453 0.1350365 0.21727157 0.058638047 -0.03350823 -0.08872381
-0.16423419 -0.012186064 0.27134225 -0.056577004 0.21501186 0.1265967 0.30542177 -0.019924851
-0.16530709 0.029050898 0.111479305 -0.09904741 -0.30577233 -0.063829824 -0.0028711928 -0.04848802
-0.036917426 -0.21292074 -0.008625373 -0.06300436 -0.1269584 -0.44539952 -0.24052097 -0.07841651
-0.15016353 -0.07295229 0.07846976 0.0043775938 0.25298992 -0.09837923 -0.10169981 -0.09906719
-0.010820948 -0.0180019 -0.028467584 0.10293253 -0.15712829 -0.049331985 0.022221008 0.091285884
0.04759477 0.0805481 0.075091526 0.07738696 -0.120545015 0.021608952 -0.11617625 -0.02434406
-0.00012491876 -0.09960059 0.05549502 0.10100757 -0.06692344 -0.28045043 -0.104880475 -0.2566721
-0.12154663 0.04900467 -0.23107074 -0.0055332994 -0.24277674 -0.13826784 -0.15764803 -0.08462517
-0.051335037 0.073979884 0.010398595 -0.041448485 0.0914179 -0.007454461 -0.0066642333 0.17115414
0.084645845 -0.14968516 -0.38250935 -0.30583447 0.1786192 0.11812478 0.018981226 0.09958107
0.08021598 -0.124234 -0.04875948 0.21138056 -0.37626582 -0.11150576 0.103860736 0.14626819
0.43307632 0.31263536 0.2871305 0.15071175 -0.45188144 -0.18342236 -0.060841054 0.1384872
0.06554818 -0.118542984 -0.03631898 -0.15456879 -0.0044407216 0.30451167 0.31935453 -0.10410579
-0.2083742 -0.11348364 -0.32458207 -0.20595597 0.21341267 -0.029973816 -0.04381223 -0.031327378
-0.19830708 0.13355944 0.06196111 -0.21780306 0.13307652 -0.14091034 0.05692001 0.028969549
-0.6133602 -0.3413962 0.07862134 -0.10311801 -0.4830434 -0.21145263 0.094984256 -0.08745611
0.06377845 -0.1433057 -0.028068013 -0.053446095 0.26163793 -0.13378061 -0.1287221 -0.15478325
-0.093297005 -0.09323648 -0.14781512 -0.0031233565 0.2237283 -0.01677699 -0.071382366 0.16649745
-0.0060659936 -0.09145317 -0.14481226 -0.15699129 -0.27791002 -0.3776595 -0.12763235 -0.2642701
-0.101586126 -0.190485 0.20009117 -0.07348466 -0.14153679 0.38759598 0.0448315 0.3271446
-0.006309811 0.16929634 -0.05781864 -0.08546299 0.022008004 0.018004376 -0.32357672 -0.004460786
-0.006257807 -0.2007652 0.1100546 0.33989426 0.2842856 0.0855782 0.10619325 0.06492396
0.3140593 0.025896093 -0.10898085 0.023201806 -0.26265755 0.21204343 -0.21578854 -0.34458315
0.31940228 0.23075573 0.08046312 0.2590886 0.16077997 -0.063862905 0.34613073 -0.11474592
0.11132034 -0.41066128 -0.15017594 -0.112010956 0.04895586 -0.15367189 0.06223612 -0.020513369
-0.18685278 0.114804775 -0.34323236 -0.045114163 0.2198619 0.011646629 0.010913941 -0.04451848
-0.19158429 -0.16751704 -0.036660474 0.015920721 0.26700935 0.18409869 0.35094076 0.18140686
0.11280556 0.30112326 -0.036042053 0.053001884 0.11059039 -0.14464007 -0.046510365 -0.39681193
00000000: 46d3 d73d e21f 9ebd c9ba 81be e23f b23e
00000010: f6ea 28bd b8e6 00bd b41d 5b3d cbea d6bc
00000020: 7251 a53e e0a5 fdbe 6f53 cbbe 2f2b 9cbe
00000030: 0a15 61be 25d5 35be 0795 29be d676 95bc
00000040: 6843 efbe c584 54be 04aa 243e 5441 293e
00000050: 7123 e6bc bd04 c73d e243 3cbd 6e43 51be
00000060: dd07 fe3d 0dc2 de3d 21d9 643e 0247 0a3e
00000070: 707c 5e3e 732e 703d ed3f 09bd d4b4 b5bd
00000080: 022d 28be 0fa8 47bc 5fed 8a3e 4abd 67bd
00000090: 122c 5c3e 91a2 013e 3e60 9c3e 7139 a3bc
000000a0: 4346 29be 26fc ed3c 434f e43d 5ed9 cabd
000000b0: 318e 9cbe 36b9 82bd 9f2a 3cbb 609b 46bd
000000c0: ba36 17bd e507 5abe 7051 0dbc 6e08 81bd
000000d0: 6201 02be 680b e4be 214b 76be d698 a0bd
000000e0: 78c4 19be 0368 95bd c1b4 a03d eb71 8f3b
000000f0: e587 813e 0d7b c9bd fd47 d0bd bde3 cabd
00000100: 584a 31bc b878 93bc da34 e9bc 4ace d23d
00000110: 3de6 20be 5610 4abd d508 b63c 18f4 ba3d
00000120: bcf2 423d 67f6 a43d 96c9 993d 0e7d 9e3d
00000130: 4ee0 f6bd 4205 b13c d0ed edbd 326d c7bc
00000140: a0fc 02b9 65fb cbbd bf4e 633d 0fdd ce3d
00000150: 280f 89bd 3397 8fbe 93cb d6bd 876a 83be
00000160: 71ed f8bd 1fb9 483d cf9d 6cbe ae50 b5bb
00000170: 779a 78be 1696 0dbe 7c6e 21be f64f adbd
00000180: b044 52bd c482 973d de5e 2a3c e3c5 29bd
00000190: 4f39 bb3d 8d44 f4bb a45f dabb 0843 2f3e
000001a0: cd5a ad3d 1147 19be 44d8 c3be 5696 9cbe
000001b0: f4e7 363e 68eb f13d 847e 9b3c 29f1 cb3d
000001c0: 4748 a43d 656e febd 05b8 47bd 2574 583e
000001d0: eaa5 c0be 225d e4bd f0b4 d43d 54c7 153e
000001e0: 2ebc dd3e be11 a03e c502 933e 2e54 1a3e
000001f0: 015d e7be 12d3 3bbe 7834 79bd 97cf 0d3e
00000200: 203e 863d aac6 f2bd 36c3 14bd 4847 1ebe
00000210: 7983 91bb f4e8 9b3e 7082 a33e 6b35 d5bd
00000220: 0c60 55be 1c6a e8bd 9f2f a6be 1fe6 52be
00000230: da88 5a3e a68b f5bc 7474 33bd 2351 00bd
00000240: 0311 4bbe cec3 083e efca 7d3d c407 5fbe
00000250: 3645 083e cd4a 10be f524 693d 8c51 ed3c
00000260: 2d05 1dbf 7ccb aebe 3a04 a13d 892f d3bd
00000270: 7751 f7be 0a87 58be 1b87 c23d 301c b3bd
00000280: 479e 823d bbbe 12be e4ee e5bc 4bea 5abd
00000290: 68f5 853e c9fd 08be bacf 03be 807f 1ebe
000002a0: 8012 bfbd c5f2 bebd d95c 17be 3ab1 4cbb
000002b0: 0819 653e e66f 89bc eb30 92bd 4f7e 2a3e
000002c0: 3ec5 c6bb cd4b bbbd aa49 14be 53c2 20be
000002d0: 394a 8ebe 965c c1be 0eb2 02be 694e 87be
000002e0: 630c d0bd 800e 43be b3e4 4c3e 207f 96bd
000002f0: 05ef 10be fb72 c63e 3ca1 373d 7f7f a73e
00000300: 88c2 cebb 055c 2d3e 3dd3 6cbd 3807 afbd
00000310: 214a b43c ea7d 933c d9ab a5be c92b 92bb
00000320: 4a0e cdbb 6595 4dbe 4e64 e13d 9f06 ae3e
00000330: e28d 913e a043 af3d d97b d93d daf6 843d
00000340: 61cc a03e 0b24 d43c 5a31 dfbd b711 be3c
00000350: 0d7b 86be ea21 593e acf7 5cbe 346d b0be
00000360: b288 a33e 3b4b 6c3e d9c9 a43d 43a7 843e
00000370: 81a3 243e 8eca 82bd 0c38 b13e e9ff eabd
00000380: ebfb e33d 3242 d2be b9c7 19be 0066 e5bd
00000390: f185 483d 2a5c 1dbe 4deb 7e3d a70b a8bc
000003a0: 5656 3fbe c41e eb3d 27bc afbe a1c9 38bd
000003b0: 7a23 613e 81d1 3e3c 63d0 323c 0259 36bd
000003c0: ac2e 44be 9689 2bbe 4b29 16bd 2c6c 823c
000003d0: 73b5 883e 5e84 3c3e 82ae b33e b8c2 393e
000003e0: 9a06 e73d d42c 9a3e d5a0 13bd 8118 593d
000003f0: 377d e23d 871c 14be a781 3ebd ef2a cbbe

cnn.12.bias f4 [64]
-0.040626805 0.00045056437 -0.030419609 0.0103028165 -0.015797382 -0.0009650861 0.06728015 -0.019470712
0.011797767 0.006076782 0.057140615 0.013497732 -0.0055451705 -0.00452561 -0.0026026675 0.001111479
-0.0645744 0.019079871 -0.01704262 0.07576938 -0.0006562276 0.07732686 0.023821924 -0.05973386
-0.029421655 -0.046038643 -0.039069362 0.008771801 0.04995382 0.05685101 0.032379128 0.009278976
-0.051732197 0.02201774 -0.014969098 0.041846342 -0.0031530326 -0.021026375 -0.03447662 0.029051669
0.022167485 0.035586677 -0.069872685 -0.017994182 -0.018302241 0.0046534995 0.04094555 -0.03856
-0.002648423 0.004130331 -0.012519745 0.0044773403 -0.028101826 -0.016602218 0.025059137 0.009053233
-0.06118239 0.024927197 0.05143582 6.3071493e-06 0.04034023 -0.010465782 -0.028228154 -0.057795066
00000000: 4b68 26bd ba39 ec39 8b32 f9bc 25cd 283c
00000010: 8369 81bc d5fd 7cba 2dca 893d 0b81 9fbc
00000020: 6c4b 413c be1f c73b 470c 6a3d 9725 5d3c
00000030: 43b4 b5bb 914b 94bb 8491 2abb 0caf 913a
00000040: 953f 84bd 644d 9c3c f79c 8bbc fa2c 9b3d
00000050: b006 2cba 8b5d 9e3d 3226 c33c 7eab 74bd
00000060: af05 f1bc 0493 3cbd 3207 20bd 9ab7 0f3c
00000070: 609c 4c3d 9bdc 683d fa9f 043d d906 183c
00000080: 24e5 53bd 8c5e b43c f340 75bc 1267 2b3d
00000090: 1ca3 4ebb 813f acbc 5b37 0dbd c4fd ed3c
000000a0: 9698 b53c 56c3 113d 6919 8fbd 8968 93bc
000000b0: 95ee 95bc 627c 983b 85b6 273d 17f1 1dbd
000000c0: 2a91 2dbb ba57 873b 9e1f 4dbc a7b6 923b
000000d0: cd35 e6bc 6001 88bc d248 cd3c 0354 143c
000000e0: 639a 7abd 1f34 cc3c 5eae 523d 00a2 d336
000000f0: cc3b 253d ac78 2bbc bb3e e7bc 85ba 6cbd

cnn.13.weight f4 [64]
0.82763696 0.7734946 0.9184965 0.9181152 0.6664292 0.70991975 0.74324495 0.9047768
0.70282286 0.7560018 0.7730894 0.66082317 0.7534363 0.86026895 0.87757456 0.7092185
0.6742701 0.6864488 0.6693073 0.7477048 0.6366038 0.861032 0.74027544 0.6833309
0.726884 0.79661757 0.6993078 0.7046835 0.6423161 0.7977849 0.935312 0.7884598
0.85657245 0.6881565 0.73768336 0.768205 0.7244622 0.8726687 0.68643355 0.7179779
0.75515753 0.78162575 0.7536325 0.74277985 0.78375834 0.71447414 0.826146 0.78280807
0.9657156 0.76933455 1.0048635 0.73518705 0.80268544 0.7510952 0.79667723 0.953029
0.817583 0.7674013 0.6534145 0.6671919 0.69334817 0.7608992 0.70606613 0.6658551
00000000: 04e0 533f be03 463f 9622 6b3f 9909 6b3f
00000010: 1b9b 2a3f 4dbd 353f 4d45 3e3f 749f 673f
00000020: 33ec 333f 5589 413f 30e9 453f b52b 293f
00000030: 34e1 403f 963a 5c3f baa8 603f 588f 353f
00000040: f79c 2c3f 1cbb 2f3f b957 2b3f 9569 3f3f
00000050: 77f8 223f 986c 5c3f b182 3d3f c6ee 2e3f
00000060: 1215 3a3f 21ef 4b3f d605 333f 2366 343f
00000070: d46e 243f a23b 4c3f 9b70 6f3f 80d8 493f
00000080: 5548 5b3f 062b 303f d1d8 3c3f 15a9 443f
00000090: 5b76 393f 3767 5f3f 1cba 2f3f 66cd 373f
000000a0: 0152 413f a018 483f 0fee 403f d226 3e3f
000000b0: 63a4 483f c7e7 363f 4e7e 533f 1c66 483f
000000c0: 2339 773f 1cf3 443f 5e9f 803f 3835 3c3f
000000d0: cb7c 4d3f c647 403f 0af3 4b3f b5f9 733f
000000e0: 1f4d 513f 6974 443f 2c46 273f 17cd 2a3f
000000f0: 447f 313f 4aca 423f c0c0 343f 7b75 2a3f

cnn.13.bias f4 [64]
-0.25772792 -0.26255336 -0.4641582 -0.2109107 -0.31936964 -0.3797785 -0.42159572 -0.37576064
-0.32573834 -0.40569758 -0.33432752 -0.43483922 -0.27467915 -0.34162575 -0.24165845 -0.44682968
-0.17876717 -0.23035732 -0.3108083 -0.1375719 -0.35636535 -0.13985372 -0.27234796 -0.4533229
-0.3617556 -0.23276478 -0.3033063 -0.305472 -0.22907603 -0.432035 -0.4910176 -0.3501263
-0.31023026 -0.4413492 -0.40680072 -0.24907146 -0.13184693 -0.38699675 -0.3853616 -0.306934
-0.45412612 -0.45316225 -0.19782755 -0.34484023 -0.39831185 -0.29740044 -0.2759102 -0.33442768
-0.47993377 -0.2471655 -0.5302606 -0.38447914 -0.33603987 -0.36781287 -0.39348704 -0.3202485
-0.34692806 -0.14507623 -0.41976002 -0.31083518 -0.15926415 -0.4836507 -0.43898895 -0.32680696
00000000: eaf4 83be 656d 86be 25a6 edbe f9f8 57be
00000010: 6b84 a3be 5472 c2be 65db d7be b363 c0be
00000020: 2dc7 a6be 98b7 cfbe fa2c abbe 3fa3 debe
00000030: bfa2 8cbe 92e9 aebe 5075 77be dcc6 e4be
00000040: be0e 37be cae2 6bbe 4422 9fbe a6df 0cbe
00000050: 8575 b6be d035 0fbe 3171 8bbe f019 e8be
00000060: 0838 b9be e459 6ebe f74a 9bbe d366 9cbe
00000070: e892 6abe b133 ddbe a966 fbbe c143 b3be
00000080: 80d6 9ebe 86f8 e1be 2f48 d0be 970c 7fbe
00000090: e202 07be 7024 c6be 1e4e c5be 7426 9dbe
000000a0: 3883 e8be e204 e8be 4e93 4abe e68e b0be
000000b0: 88ef cbbe df44 98be 1a44 8dbe 1b3a abbe
000000c0: e1b9 f5be f418 7dbe 29bf 07bf 73da c4be
000000d0: 6b0d acbe f851 bcbe 2277 c9be 9df7 a3be
000000e0: 8ea0 b1be dd8e 14be c9ea d6be ca25 9fbe
000000f0: 2416 23be 11a1 f7be 29c3 e0be 3e53 a7be

cnn.13.running_mean f4 [64]
-2.1644106 -1.944448 -1.8548516 -0.8710852 -1.6534927 -1.4475453 -1.0018088 -2.3463006
-1.6395303 -1.210579 -1.0058347 -1.8410591 -1.4878573 -1.3852768 -1.8751216 -2.0712252
-1.8347833 -0.45658633 -2.3222177 -1.6505257 -1.8797771 -0.3552043 -0.9517334 -1.4795462
-1.7195013 -0.7872219 -1.2212486 -0.8066252 -0.83671194 -1.6080958 -1.3533149 -2.3316689
-1.6763496 -2.334383 -1.8463801 -1.8068124 -1.7653477 -1.5416695 -2.0005403 -1.8585242
-1.0217603 -1.481356 -2.9575143 -2.065459 -1.6944091 -1.1331764 -0.91661215 -1.4752231
-2.0889628 -1.4593462 -1.9158617 -1.9192698 -1.7673199 -1.3044331 -1.5935404 -1.8486401
-1.3565693 -2.3407445 -0.78480095 -1.2463739 -1.7624941 -1.6118327 -2.0537193 -0.99151176
00000000: b485 0ac0 ace3 f8bf c76b edbf 71ff 5ebf
00000010: a6a5 d3bf 2a49 b9bf 453b 80bf ca29 16c0
00000020: 21dc d1bf 41f4 9abf 31bf 80bf d3a7 ebbf
00000030: 1c72 bebf c050 b1bf fc03 f0bf f48e 04c0
00000040: 2eda eabf afc5 e9be 379f 14c0 6d44 d3bf
00000050: 899c f0bf 57dd b5be cda4 73bf c561 bdbf
00000060: 9e18 dcbf 6087 49bf e051 9cbf fd7e 4ebf
00000070: c132 56bf 15d6 cdbf 6c39 adbf 103a 15c0
00000080: a092 d6bf 8866 15c0 2f56 ecbf a145 e7bf
00000090: eaf6 e1bf 6d55 c5bf da08 00c0 1fe4 edbf
000000a0: 0bc9 82bf 139d bdbf ea47 3dc0 7b30 04c0
000000b0: 66e2 d8bf ed0b 91bf 18a7 6abf 1cd4 bcbf
000000c0: 91b1 05c0 dbcb babf f53a f5bf a2aa f5bf
000000d0: 8a37 e2bf aaf7 a6bf 22f9 cbbf 3da0 ecbf
000000e0: 10a4 adbf c2ce 15c0 b7e8 48bf 2e89 9fbf
000000f0: 6899 e1bf 8950 cebf 2370 03c0 b7d3 7dbf

cnn.13.running_var f4 [64]
3.082485 4.4468307 3.3754218 6.3979197 3.014492 3.049581 2.3046565 4.023875
3.8794591 2.822864 2.1504936 2.9821723 3.6905122 4.411601 4.0148273 3.0916047
3.761885 3.2443972 3.1602852 4.1162148 3.1370838 2.448399 2.6026533 2.2499452
3.4023633 2.8954444 3.697429 2.8572884 3.1088402 3.1346462 3.2784684 2.8224978
2.5819738 4.1248064 3.2160695 3.981261 3.8295274 3.5112693 2.3746927 2.824359
2.588244 2.0988665 5.500457 2.6435463 2.678994 2.4453506 2.9921167 3.2877595
5.052805 2.91858 4.409285 2.9759054 3.448121 3.386597 3.1701477 4.3364267
3.0128977 3.3422682 2.0275989 2.088835 3.0805602 2.1098897 2.2131286 3.1328163
00000000: 6f47 4540 704c 8e40 e906 5840 c2bb cc40
00000010: 70ed 4040 562c 4340 7e7f 1340 96c3 8040
00000020: 0f49 7840 cea9 3440 b0a1 0940 e9db 3e40
00000030: 5a31 6c40 d62b 8d40 7779 8040 dadc 4540
00000040: b9c2 7040 34a4 4f40 1d42 4a40 08b8 8340
00000050: fbc5 4840 92b2 1c40 df91 2640 1aff 0f40
00000060: 52c0 5940 f64e 3940 ada2 6c40 d0dd 3640
00000070: 3df7 4640 0b9e 4840 6dd2 5140 cea3 3440
00000080: 0f3f 2540 6afe 8340 15d4 4d40 fbcc 7e40
00000090: fa16 7540 a3b8 6040 f7fa 1740 4cc2 3440
000000a0: caa5 2540 d453 0640 be03 b040 dd2f 2940
000000b0: a374 2b40 a080 1c40 d77e 3f40 a76a 5240
000000c0: 94b0 a140 04ca 3a40 dd18 8d40 3c75 3e40
000000d0: 04ae 5c40 01be 5840 b3e3 4a40 02c4 8a40
000000e0: 51d3 4040 b9e7 5540 2ec4 0140 79af 0540
000000f0: e627 4540 6f08 0740 e6a3 0d40 1080 4840

cnn.16.weight f4 [64, 64, 1, 1]
-0.056557085 0.06804854 0.004833087 0.30270594 0.14858246 0.114344895 0.22969489 0.07154872
-0.11079212 0.11443299 -0.17940575 0.1465311 0.24721895 0.031775106 0.14959458 -0.15709306
-0.15604459 0.042014692 0.15713173 -0.029788198 0.08889693 0.08901285 0.07004747 0.10834958
0.013996165 -0.13864565 -0.06851719 -0.042714722 -0.018312903 -0.031969823 -0.31036827 -0.038070258
-0.04458386 0.03861241 0.039615724 0.050754774 0.012339663 -0.16284147 -0.20027384 -0.031632345
-0.08999308 -0.14679398 -0.14229998 -0.03509754 0.103288494 0.10168441 0.012402386 0.07768461
-0.004370816 -0.22402535 -0.3868139 0.070787564 -0.1713661 -0.065954536 0.21357615 0.14620842
-0.1911835 0.030112255 0.0053122137 -0.07303719 0.15558192 0.16997132 0.32065004 -0.032280568
0.063114084 0.16552214 0.2449896 -0.11161924 0.14718427 0.035410408 -0.14082934 -0.15588313
-0.36574793 -0.049490698 -0.2121003 -0.07078398 -0.064515024 -0.15813334 0.0407802 -0.07927198
0.024091532 0.012798159 0.053046774 0.18788058 -0.14394802 0.06828245 -0.063125916 0.40749976
0.106953636 0.12619987 0.1579533 0.005513354 0.09451121 0.16557959 -0.12713863 0.18620533
-0.19724217 0.14721891 -0.2763104 0.16683728 0.07916788 -0.147648 -0.1646906 0.13212846
-0.10095704 0.301601 0.03737002 -0.37985244 0.082780235 0.017126217 -0.14055504 -0.13906859
0.18991321 0.19232446 0.03277091 -0.13806267 0.39982343 0.14579801 0.27499846 0.0011990607
-0.016970651 -0.07194729 -0.15449433 0.014412491 -0.019444576 0.052027036 -0.15377516 0.075655244
-0.18087041 0.034480464 0.13548854 -0.027188681 0.19489393 0.111992314 -0.099308215 0.17243391
-0.031439275 -0.08075877 -0.048163928 0.08954883 0.108530946 0.070371434 0.021906346 0.094317526
-0.0069591636 0.18696244 0.0050596925 0.35929742 0.17476721 -0.06618405 -0.10926375 0.22081125
0.27072653 0.14477938 -0.12308689 -0.18354392 0.14070156 0.24972309 -0.20977372 -0.076900974
-0.0056423647 -0.08947948 -0.04898941 0.17464785 -0.13150656 -0.10517505 -0.08182442 -0.21173202
-0.13569647 0.59232575 -0.24714318 -0.17520753 -0.16235304 -0.002598973 0.0013005732 0.14664046
-0.12149106 -0.11005645 0.16840217 0.10061343 0.12917465 0.15007329 -0.17016605 -0.24722052
-0.060102474 0.03561645 -0.12243533 -0.048746206 0.08664886 0.071256556 0.02822054 0.15140162
-0.2577956 0.061183594 0.3142256 -0.20987251 0.12452867 -0.027226415 0.069641784 0.17598811
-0.14018945 0.019816888 -0.20971647 0.29915705 0.24131231 0.08085274 0.10703456 -0.11846598
-0.11926206 -0.055021808 -0.039964605 0.0798679 -0.091060154 -0.0009072565 -0.026646279 -0.19028106
0.1002695 -0.14869523 0.097381525 -0.31136835 0.12590875 0.080178656 0.35617396 0.04671578
0.2559517 -0.20071352 0.120932624 -0.17633097 0.07329625 0.19937865 0.07792104 -0.06782913
0.09669166 0.0048982874 0.14775229 0.17535742 -0.05640097 -0.05432109 -0.06954701 -0.14192367
0.12216759 -0.06622339 -0.119782634 -0.14013499 0.04330279 -0.07755139 0.25042358 -0.2330844
0.108727306 -0.08945176 -0.047494948 0.12086867 -0.13755745 0.08721564 0.13049343 0.24524008
00000000: 67a8 67bd 085d 8b3d df5e 9e3b 46fc 9a3e
00000010: 0026 183e a82d ea3d 2335 6b3e 2388 923d
00000020: fbe6 e2bd d85b ea3d 24b6 37be 400c 163e
00000030: f726 7d3e 9d26 023d 522f 193e 01dd 20be
00000040: 27ca 1fbe 9917 2c3d 24e7 203e 6106 f4bc
00000050: 980f b63d 5e4c b63d 0c75 8f3d 62e6 dd3d
00000060: 2c50 653c 20f9 0dbe be52 8cbd a2f5 2ebd
00000070: f104 96bc caf2 02bd 97e8 9ebe 8fef 1bbd
00000080: 919d 36bd 0c28 1e3d 1944 223d 3de4 4f3d
00000090: 4c2c 4a3c eabf 26be 9614 4dbe eb90 01bd
000000a0: 4b4e b8bd 2951 16be 16b7 11be 70c2 0fbd
000000b0: eb88 d33d ea3f d03d 6133 4b3c 1c19 9f3d
000000c0: 1039 8fbb e766 65be 790c c6be 12f9 903d
000000d0: 987a 2fbe 2c13 87bd b5b3 5a3e a9b7 153e
000000e0: 9cc5 43be faad f63c 1412 ae3b 8694 95bd
000000f0: de50 1f3e f60c 2e3e 3e2c a43e a138 04bd
00000100: f541 813d a37e 293e 8ede 7a3e a198 e4bd
00000110: 79b7 163e 810a 113d 9135 10be d49f 1fbe
00000120: 5043 bbbe c2b6 4abd d230 59be 31f7 90bd
00000130: 7420 84bd b5ed 21be 2409 273d 5959 a2bd
00000140: 9b5b c53c 5faf 513c 9347 593d c463 403e
00000150: 1c67 13be abd7 8b3d 2948 81bd cfa3 d03e
00000160: 820a db3d 8a3a 013e 83be 213e 5ea9 b43b
00000170: 188f c13d b28d 293e a130 02be 9cac 3e3e
00000180: daf9 49be 8ec0 163e 8f78 8dbe 64d7 2a3e
00000190: c522 a23d 0a31 17be a7a4 28be af4c 073e
000001a0: 91c2 cebd 726b 9a3e 4e11 193d 057c c2be
000001b0: af88 a93d 484c 8c3c a9ed 0fbe ff67 0ebe
000001c0: 9c78 423e b4f0 443e ca3a 063d 4d60 0dbe
000001d0: a8b5 cc3e 134c 153e 99cc 8c3e cd29 9d3a
000001e0: 0906 8bbc 1a59 93bd c333 1ebe 5e22 6c3c
000001f0: 3b4a 9fbc 4d1a 553d 3c77 1dbe 23f1 9a3d
00000200: 1836 39be 633b 0d3d 82bd 0a3e ccba debc
00000210: 4692 473e 3a5c e53d 1b62 cbbd 8492 303e
00000220: 78c6 00bd db64 a5bd 8a47 45bd 6165 b73d
00000230: 7945 de3d e61e 903d f074 b33c 8c29 c13d
00000240: b209 e4bb 1573 3f3e c7cb a53b d5f5 b73e
00000250: 2df6 323e 818b 87bd acc5 dfbd 581c 623e
00000260: ab9c 8a3e 0c41 143e fb14 fcbd f0f2 3bbe
00000270: 1214 103e 69b7 7f3e ecce 56be 427e 9dbd
00000280: 96e3 b8bb 0541 b7bd 1fa9 48bd e3d6 323e
00000290: a8a9 06be 0466 d7bd 9093 a7bd 47d0 58be
000002a0: 04f4 0abe a9a2 173f 1a13 7dbe 9a69 33be
000002b0: e03f 26be 8853 2abb ff77 aa3a eb28 163e
000002c0: 4ed0 f8bd 4765 e1bd 9e71 2c3e 6a0e ce3d
000002d0: 5c46 043e d0ac 193e 0240 2ebe 6027 7dbe
000002e0: 032e 76bd 8ee2 113d 60bf fabd 1aaa 47bd
000002f0: f574 b13d f5ee 913d c32e e73c 0709 1b3e
00000300: c9fd 83be a69b 7a3d 2ee2 a03e d2e8 56be
00000310: e308 ff3d ee09 dfbc 5aa0 8e3d 3a36 343e
00000320: d38d 0fbe 0757 a23c eabf 56be 1d2b 993e
00000330: 931a 773e 1f96 a53d ef34 db3d 4b9e f2bd
00000340: ab3f f4bd 8c5e 61bd edb1 23bd c891 a33d
00000350: bf7d babd f4d4 6dba 4c49 dabc 0ad9 42be
00000360: 185a cd3d 9043 18be f76f c73d ac6b 9fbe
00000370: 39ee 003e b534 a43d 6f5c b63e 0c59 3f3d
00000380: 1a0c 833e d887 4dbe 86ab f73d 1b90 34be
00000390: 581c 963d eb29 4c3e 1195 9f3d 00ea 8abd
000003a0: 4706 c63d d081 a03b 604c 173e e590 333e
000003b0: b404 67bd cb7f 5ebd aa6e 8ebd 7054 11be
000003c0: 0033 fa3d 21a0 87bd 9950 f5bd 8c7f 0fbe
000003d0: 445e 313d 43d3 9ebd 8537 803e adad 6ebe
000003e0: 6cac de3d 7c32 b7bd 108a 42bd fe89 f73d
000003f0: dcdb 0cbe 1d9e b23d 12a0 053e 3720 7b3e
